DG-1D/GNN/GNN_ModelNewWeighted.pt (torch, 36561 bytes, 10 tensors)

conv1.att_src f8 [1, 10, 32]
00000000: 9f2e d9fa 4591 10c0 3623 7053 e4f7 15c0
00000010: c116 4b52 da34 0a40 2734 ffc0 33cd 02c0
00000020: ad1b 87a2 0ecf 0940 ef68 0d90 488d 0f40
00000030: e2a3 ac6e 2512 0e40 3aa0 409e 5912 10c0
00000040: 0878 9c2a b4cf 11c0 1cf6 1bd9 6353 f0bf
00000050: 4911 f9d3 5045 06c0 95ab f607 8488 10c0
00000060: e314 f503 d366 1040 9da3 9a0d 19bd 0a40
00000070: 3611 e6b1 3085 12c0 9283 3923 40bb 0d40
00000080: 57cc 969d 7e04 11c0 284d 6104 cc74 cd3f
00000090: ceaa f4f0 cc43 10c0 147c 1841 8a4c 1340
000000a0: 91eb 95cd 69cd 07c0 9ec6 41aa 19f3 0b40
000000b0: bbf6 4dd7 2637 0f40 51a0 2ceb b940 13c0
000000c0: e076 5720 d5ab 12c0 5f2c 9d68 e27f 13c0
000000d0: 53a1 616f e5b5 0a40 181a 8b85 04b0 0d40
000000e0: 74f6 5570 7849 0d40 f671 779f c382 12c0
000000f0: 50c3 c179 a329 0e40 fef4 4309 d262 0d40
00000100: 968c 50f2 b7bb 00c0 068d 66ed a886 e23f
00000110: 3b51 47bb 18d6 e7bf 4124 65bf 0684 b53f
00000120: c38e 2dd1 f2a8 bf3f 410c dac4 a3a6 f0bf
00000130: e380 0251 9588 c53f 9aff 654c f189 db3f
00000140: 1978 943b e99d c9bf 3b69 ee14 ef13 c8bf
00000150: d4d3 0df8 8814 e0bf a170 cf36 0ed3 c93f
00000160: 66e2 2c9c d96e f8bf 96eb 4792 19e2 f03f
00000170: bc64 75ea b94e d0bf 241b e3b6 3389 e8bf
00000180: 1359 0beb 8180 ec3f 3921 f31a 1b7a d2bf
00000190: 80a7 25f8 8a87 d8bf 0c36 d9b8 ecc0 a2bf
000001a0: e3ef e9b0 7408 d83f f622 64db 4aa1 d1bf
000001b0: 1be8 1d69 25f5 eb3f 0c0f 5691 8c8a bdbf
000001c0: 1f95 aba9 9465 c0bf 3094 bcd1 d129 e0bf
000001d0: 2b2e 663a 89ac cbbf f74b 184f 74cb e83f
000001e0: 0751 2fb9 84b2 d0bf b920 be22 4214 c03f
000001f0: 60c9 1df9 aa47 c73f ef78 009d 3cd9 e53f
00000200: 53e5 7605 e5c1 ebbf 901a 6741 4cc3 0d40
00000210: b0e3 84d8 7245 1240 127e 4e36 6ae9 15c0
00000220: 9c45 119c f41a f0bf 13eb 15c3 5c26 13c0
00000230: 3e34 5dc2 0089 0140 d802 cef8 6a9f 0d40
00000240: 8c03 4599 f7b4 16c0 f6ab b003 e67f 14c0
00000250: 98a8 8169 df96 fe3f 5dc3 efae 7e10 01c0
00000260: d6cb b69e 51df 08c0 b425 28bc 112e 0b40
00000270: 93b9 d692 c8ba ec3f 135e 2682 467d 15c0
00000280: fb11 ac12 daca 0f40 a8ff b680 15de 13c0
00000290: 80a8 307a cdc4 0940 1d67 8760 d39a 02c0
000002a0: ff51 02f4 8f8e e23f a77d 85e0 1cd5 09c0
000002b0: e0b7 5d3c f10c 0fc0 9613 b3fd f8ea 0540
000002c0: 471d 0573 7c07 12c0 7833 1fcd c7f9 0040
000002d0: 8b65 2376 511f 0e40 2bfa 1776 a808 12c0
000002e0: 54a3 71b6 3ca3 d0bf 6971 3878 47f0 0c40
000002f0: 0d91 5e4b fbd4 12c0 10d9 6c71 86d9 11c0
00000300: 6d22 b273 fef4 c43f 5a35 f40e 681b c63f
00000310: 1474 ff61 8fc7 d1bf 3c5b 8c81 7a6a 84bf
00000320: f157 04d3 c30a e53f 23df dd97 2436 a03f
00000330: 5111 e695 a697 d7bf 3804 5947 fd73 e7bf
00000340: d205 a5cf 6b52 e23f 31d1 0ee6 2e97 e13f
00000350: c10a e5d5 b515 473f 0d6f b0fc ab8c ca3f
00000360: d584 dd6d d804 04c0 3fc2 8241 aa98 d83f
00000370: b89b f158 4446 acbf 6a89 4162 1fa7 c93f
00000380: 6de3 d4fb 3fd4 dc3f 1d52 db97 be61 f0bf
00000390: cb71 57e2 8800 a63f 28cb c4f5 32e7 dd3f
000003a0: d939 0543 f1c9 cabf c4e7 a34f 1e5a f7bf
000003b0: 2dfd d933 7719 c2bf fe16 bc2d 178f ccbf
000003c0: 0698 8586 4137 babf d31e c197 2859 f0bf
000003d0: 4be2 397e 1f5f fdbf b4df 0029 00e6 cd3f
000003e0: 14d8 fb42 ee95 d5bf a3c1 9125 7fd3 d13f
000003f0: c510 5a94 583b b23f 36c5 1e20 2ee7 d13f
00000400: a056 2274 36b5 0c40 b01c d228 a426 11c0
00000410: baf5 b5e6 b434 0840 4f32 1d52 6fcd 12c0
00000420: 8308 fa23 677e 0840 aeb9 0dcb 30c7 0d40
00000430: 73fa a863 06b2 e2bf 93cd b6db 59b9 fc3f
00000440: 2b95 d8a1 1bfe 11c0 6e84 ab8d aad9 0dc0
00000450: ca24 0ffe e39a 11c0 10e3 1b88 b04a 11c0
00000460: 4d9b df47 c0a1 05c0 a5fb b693 39fb 0e40
00000470: 3d9f ae73 4fa9 10c0 a6b5 78f4 e186 0c40
00000480: 41d8 8a89 a035 0e40 7121 0a61 70d5 10c0
00000490: 3aaa 02f7 b7ed 0a40 ec16 1d22 324b e23f
000004a0: 15f6 eb70 11b7 12c0 b5c5 108b c7a3 0340
000004b0: abc5 16ec 073a 0f40 1211 8d7c 4975 11c0
000004c0: 5b0c 6179 c7ec 0940 1b78 990e 6056 0b40
000004d0: 5cf9 53b3 60c4 0c40 69fe 8c31 de9d 12c0
000004e0: 3d3a b8eb 7896 0ac0 8a11 b30f 3aac eb3f
000004f0: d972 f320 d378 0c40 75cb f3c6 d163 db3f
00000500: a70e ed0a 77fb 60bf 5a3e daba 2251 e7bf
00000510: 96a4 213e c424 cc3f 47a1 6212 6b52 c5bf
00000520: b704 0773 a3b5 eabf 5945 0903 40ec c8bf
00000530: 04f6 7559 2df3 ce3f 005a fdfd e15a e33f
00000540: 65e7 051d bd38 e1bf a25d d63f a590 eb3f
00000550: 69d7 f5de 18d6 d6bf 0c47 e7e0 55c1 dcbf
00000560: e1b6 1026 5dc5 ebbf bb02 4a92 8321 c0bf
00000570: b0c9 070d 7397 bbbf df61 a415 be9a dcbf
00000580: 9c8a 0889 d9d5 dfbf 529d 9a9a f1f5 d93f
00000590: f6be 15ff a452 ca3f 236c 6625 673b e53f
000005a0: 65bc 035c be8a 753f 34a8 d44e 5978 eebf
000005b0: 17c1 3923 5580 e7bf 6cdc 5e1e 608d dfbf
000005c0: 7d57 6eaf 5be2 cdbf 4b30 ccb9 4a13 a8bf
000005d0: 5cf7 fef3 170c ca3f 6002 e42c 7db8 bbbf
000005e0: 146b 84c5 8add c8bf 017a 5c91 3b2b 80bf
000005f0: ad80 4838 20da e5bf b396 d2da f6cd d7bf
00000600: 5f64 f179 88ad bc3f 1078 b012 5c62 c43f
00000610: 59eb a2ea fde4 f23f 3aee a82a 21c0 f3bf
00000620: 524a 02e6 aa77 d13f 37b7 d36b a6c5 cc3f
00000630: 5e75 7e25 1906 cfbf e036 1de6 044e c3bf
00000640: 1b33 2029 47d7 d7bf cdbf 1f95 5251 e03f
00000650: 9e6b 9bdf 9029 8abf 5327 5904 ca0c e6bf
00000660: 6679 b477 342a ddbf df99 3de5 54c3 e23f
00000670: 4a0a 0603 430e c6bf dac9 be0e 2014 f0bf
00000680: 9ee9 5c72 2c7e ca3f c3b7 5183 69a2 d2bf
00000690: 0894 ebfa 02eb d3bf 644f 7ffd 4412 ebbf
000006a0: 95ee f5d2 4163 e13f 092b 5086 d11c c13f
000006b0: e283 6ca3 bf76 e5bf 6473 fe7f 4df5 cd3f
000006c0: bf62 70c4 5294 ce3f 3fff 8d24 3435 c3bf
000006d0: d02e 8d7d 2280 c5bf 3af4 f982 3431 e43f
000006e0: 364b bbe6 ebb7 c53f c61a 5557 f00a d0bf
000006f0: f810 d300 ab28 a53f 5da0 a0eb 49be cdbf
00000700: a619 e096 940f 17c0 e746 a91f f1b1 0f40
00000710: 52ba 0b75 8fbe 1640 d2a2 5f2c 53ed 17c0
00000720: 30cd d572 8f50 15c0 8a98 bfc8 881f 17c0
00000730: 1371 9188 dea2 1140 a337 efe7 7180 f8bf
00000740: d7b9 b8a4 523e 1040 cdb9 5339 5baa 19c0
00000750: 0b46 a725 3e39 18c0 8992 b9a1 b6e8 0cc0
00000760: 8cc8 6770 02cb 1040 f9f0 8992 eeff e9bf
00000770: fcb0 9e9f b02a 0840 1f5f dca5 803c 0940
00000780: c8c9 3dad f70c 00c0 4ec9 2a31 8a5b 16c0
00000790: 6e44 5757 2333 d23f bc27 1609 b122 f1bf
000007a0: f493 87e4 c816 16c0 482e 1389 ca2c 1040
000007b0: e29f b6de 4df7 1140 5d6d 1819 9037 fc3f
000007c0: 8637 9572 9fb2 19c0 d7d1 d813 6279 f43f
000007d0: a28d ce44 2ba8 19c0 cdda d0f0 1664 fa3f
000007e0: c2e2 def9 d5f4 0940 a0b5 0034 da3e 1640
000007f0: 0f16 ab82 6276 1340 1c53 337c 9d31 13c0
-4.141868514543289 -5.492081931800206 3.275807040134936 -2.350196368969154 3.2261021325570796 3.943986058625448 3.75886045898777 -4.017919991201831
-4.45283571796427 -1.0203588944272104 -2.78384557346195 -4.133316158705289 4.1004143350921565 3.3423329413239586 -4.630068568865957 3.716430926506697
-4.254389250115387 0.2301268597972037 -4.06621147626238 4.82474614822333 -2.975299459588719 3.493701295978851 3.90192955214192 -4.81320922336461
-4.667805199945832 -4.874887117951487 3.3388165189427723 3.7109461243701496 3.6608742500528084 -4.62769936720405 3.7703313362366444 3.673252174745925
-2.0916594439345984 0.5789379727106343 -0.7448848398003415 0.08404581234675935 0.12367169958957462 -1.0406835259934868 0.1682306905322611 0.4302943464353973
-0.20013156327417006 -0.18810833475147057 -0.5025067181401206 0.2017534034374693 -1.5270629978751002 1.0552001680468712 -0.2548050679811913 -0.7667482921613993
0.8906869497975854 -0.28870275146302365 -0.38327287896265005 -0.036628148617278894 0.37551610256900697 -0.27546950745504206 0.8736750653326938 -0.11539534137960689
-0.12809999737434283 -0.5051049324434924 -0.21620288230438808 0.7748357338736004 -0.2608959015317542 0.12561823555393462 0.18187462962994072 0.6827681604807178
-0.867418776200035 3.720360289534547 4.5678209143742805 -5.477944229641723 -1.006580934179829 -4.787463234150681 2.1918959793752313 3.7028407514447785
-5.676725764119407 -5.124900872858225 1.9118341561648204 -2.133054129306784 -3.1090423965010627 3.3974947643043496 0.8978007190651617 -5.37233928069283
3.974048753620307 -4.966878901643135 3.2210950418566995 -2.3255984822580005 0.5799026265909218 -3.229058984826867 -3.881319495782904 2.739732725169641
-4.50731067389217 2.121963121905022 3.7652920941879464 -4.508455128873304 -0.2599632054976173 3.617323817465309 -4.707989862105262 -4.46242692210059
0.16372662209711866 0.1727113793389588 -0.2778051812181854 -0.009968716696261752 0.6575640794205794 0.03166307786790259 -0.3686310256819257 -0.7329088586340111
0.572561173969172 0.5497049802129707 0.0007044923657207534 0.20741796339358878 -2.5023659308650203 0.38431793592011226 -0.05522359452952891 0.20041267678886793
0.45045470803193305 -1.0238634044554893 0.042972829465472616 0.46723627091266673 -0.20928779385071897 -1.4595015631625623 -0.14140214950382682 -0.22311677678242597
-0.10240563902115704 -1.021767227926763 -1.8357233935077086 0.23358156206245229 -0.33727604428656943 0.27853373211748983 0.0712180483042771 0.27973511826265296
3.5884827683428995 -4.287735593628142 3.0257356666831727 -4.700619967491163 3.061720162456426 3.7222610343516953 -0.5842315622792981 1.7952517111378696
-4.498152283519896 -3.731282336041253 -4.40126034705572 -4.322939039899907 -2.7039800276865322 3.872668413182924 -4.165342147381861 3.565860662397159
3.7761851068017056 -4.208436504596066 3.3660735414207723 0.5716791788369995 -4.678777470018322 2.4549704422467706 3.903335422940207 -4.36453814135554
3.240614841722658 3.417175401743419 3.5958875665666437 -4.654167913656786 -3.3234728255841035 0.8647737795477479 3.55899644606539 0.42796749524057215
-0.002073032860978891 -0.7286542558158076 0.21987202676544787 -0.166577705361542 -0.834672665274545 -0.19470977924587876 0.24179617756082916 0.6048440895781937
-0.5381761137825661 0.861406922037464 -0.356817453131376 -0.4493002601931131 -0.8678422683203416 -0.12602276461622872 -0.10777968471646804 -0.4469447337483227
-0.49742735273518135 0.40563621614497436 0.20564711051292023 0.6635013323278866 0.0052592693248093335 -0.9521910228406854 -0.734415596771245 -0.4930038734996234
-0.23347040239303488 -0.04702218549763922 0.2034940663706334 -0.10828382822001847 -0.19426092762372404 -0.007894959806034942 -0.682876691749717 -0.37194606179614736
0.11202290513155465 0.15925169861378707 1.1809062161907689 -1.2344066301728973 0.27292892896472154 0.22478180184355676 -0.242373603160483 -0.1508184550861449
-0.37251452461423334 0.5099270737246059 -0.012774593185374713 -0.6890611729552155 -0.455700985812561 0.5863441922527349 -0.1723102345241208 -1.004913385008527
0.20697551330688396 -0.29116285156385063 -0.3112189722435805 -0.8459801627272836 0.5433663482976551 0.13369196947345355 -0.6707456771729279 0.2340485453577471
0.23890146819828392 -0.15006114754577912 -0.16797286158031577 0.6310064848072507 0.16967533842270094 -0.25066765335615704 0.04132589707436013 -0.23236965184446748
-5.765215260913839 3.9618856881651143 5.686094120827493 -5.981762593590888 -5.3286722128862465 -5.78079522771271 4.409052022816712 -1.5313586292208832
4.060862134718682 -6.416363616690842 -6.055901134810038 -3.6136295923955157 4.198251491865573 -0.8124916898809992 3.020844695120216 3.154542251384455
-2.0063317808610215 -5.589394348370048 0.28437121896155915 -1.0709696154540174 -5.522250719809552 4.0437413614232085 4.491507987877386 1.7635651569642825
-6.4244363692831765 1.2796345496436652 -6.414227557284365 1.6494359404438683 3.2445487519401874 5.561379253905585 4.865610162441512 -4.798452320702179

conv1.att_dst f8 [1, 10, 32]
00000000: 6a29 48f6 cb5b e4bf bb32 6094 8276 e6bf
00000010: cbda 5001 bede e3bf edd2 1946 c817 fa3f
00000020: 6742 41e0 e41a e9bf 27ad 0b68 8df6 c2bf
00000030: baca 416c f1d0 d53f 357a 1ee3 1925 f33f
00000040: d681 a5c5 6b1c ed3f a6e6 c499 f762 02c0
00000050: b9c7 07f3 1efc f23f b0f3 f2fc 199c d93f
00000060: 3024 2210 c6ca c03f 4ce3 7b6c 0363 d13f
00000070: 7b1d 8831 5476 debf 3205 af93 a988 e6bf
00000080: ce17 45f6 d37b f83f 82d1 de2b e65d f53f
00000090: 814f 83f7 2e39 e93f 2b56 3e8c fa8e ec3f
000000a0: c3f2 de4d 0b02 efbf e6fd 6930 4bdd d93f
000000b0: be47 5007 4ac8 c4bf f277 f8b3 389d e23f
000000c0: c9f1 eaaf 9775 c33f 5217 26f5 cd46 d13f
000000d0: 0a6e d6e8 c09a e4bf c660 52c9 33f7 f33f
000000e0: f5e3 46bf e2ff e0bf d425 02ab f7d5 d5bf
000000f0: f9f6 320d 8b0c f5bf 6cf7 7969 51cc f1bf
00000100: d81e 089d 444a d3bf c001 2371 1759 c0bf
00000110: 8f6c 980f d4a1 c73f 8148 0d8d 1d26 abbf
00000120: f134 03a4 7554 d23f 6d79 db6d a993 a83f
00000130: f1dc 90c8 a5fd a0bf e23d 55ed bb52 c33f
00000140: daeb 0546 8929 dabf 1409 c148 c975 dabf
00000150: 5116 0082 68f0 783f f022 23b2 6ce6 ccbf
00000160: 8202 d48a 9a6c d4bf 6e93 4f4b 1ba2 a43f
00000170: e876 ac4a 0000 d93f 6b59 ed19 afb9 b23f
00000180: 0e2b 19f6 eb59 c73f 3fec 4553 b0a3 d7bf
00000190: c6b1 f240 cbaa d63f 38c4 750b 7f83 c33f
000001a0: 8223 b9fc 08a3 d83f 5890 4fed e645 d2bf
000001b0: 2074 4b74 e4f2 d0bf cb8e 6a66 fb4b a3bf
000001c0: 4862 6c9d 6577 c7bf 822a adc8 7ac3 b6bf
000001d0: a82b dd5b d331 ca3f d001 1ac0 391e b4bf
000001e0: 8c14 9533 ed5e cdbf 9a4c 2f11 b274 c53f
000001f0: c0df 5385 af75 a6bf ff8e c409 deaa d03f
00000200: d7b8 ff0e b911 d8bf 805a f88e 02d3 ddbf
00000210: c377 0e4d cd8e d0bf 2f1b 354e 80e8 84bf
00000220: 189b 6738 bb4f f0bf 2931 deec 4aed b8bf
00000230: 5843 87bf 8386 d3bf de62 b858 e0e5 c7bf
00000240: cb51 5189 177d f4bf 6c54 4ce7 3116 c73f
00000250: f8a4 fbc5 64fe d5bf b576 14e9 37ed e13f
00000260: bbda 1748 c9dc bb3f 3dd0 6c7a 0c63 e7bf
00000270: ff29 444d 7ed2 d4bf b21f 91df 4a4c c3bf
00000280: 478b b56a 720a d7bf f26e 821a 093a e23f
00000290: e0d9 f891 394b d1bf d7b0 f7f2 1a85 d63f
000002a0: c12c 9e6c 95b6 e6bf 7e20 6032 4338 ddbf
000002b0: 1696 81ca f8ee d73f c94d f4f6 08d2 e13f
000002c0: afda 1e6b edd0 e43f 22cc 97cd 910d 80bf
000002d0: a29e bdbd 0290 dabf 2ef7 6e1d 0d1f c43f
000002e0: 0226 a92e b3d5 e7bf 7f13 e842 bab3 e3bf
000002f0: 0fe4 9035 9f7e dd3f 4015 eafb 7a5a d53f
00000300: 9c46 3f6e bf2b d33f d20b 5a19 caa4 d53f
00000310: abe7 1d35 11f6 d63f e3a9 ee42 5009 c43f
00000320: 56a9 30d6 4457 d0bf 4fd8 09c3 807e d2bf
00000330: ce0a 6724 7977 6dbf 31a5 99c0 8846 d6bf
00000340: b8f5 f400 0fa8 ae3f 9526 27ac b289 973f
00000350: ea96 1152 680b c1bf 9bb2 c0ca 6100 d63f
00000360: 2675 93f0 316a d03f 7cb2 7999 bbb2 ccbf
00000370: 1f21 5a9c 6a72 c1bf 9661 27f4 4212 c0bf
00000380: 84ad d03f 1311 ba3f 1816 aec5 7b13 d3bf
00000390: 7e82 6d23 ec3a d5bf b82d 6ced 02d0 cd3f
000003a0: 9cd7 f049 9308 cabf 61a5 b63a 730f d93f
000003b0: 27f5 d2d7 ed70 c73f 85d4 0986 17de ccbf
000003c0: b5b5 29ca 768d d13f 6b3f 4035 ac96 ce3f
000003d0: 1e78 b144 5134 d03f 6dde 3237 e05c 883f
000003e0: 7c6c bd10 d784 ac3f df93 83a8 ceb4 dabf
000003f0: fc5d f8fb ad43 c73f f761 8a60 c5ac 65bf
00000400: e87b bf22 be88 f3bf 61f5 5a0d c1cd e43f
00000410: 64a3 d4a4 f827 f1bf 4d09 d4bb a78a ee3f
00000420: e888 b0cd 2b49 d03f 4a7e 098f 314f f1bf
00000430: 3724 38c7 75ca f2bf 4168 1ad2 7c6d d33f
00000440: ddae 94df e59b ea3f b8a6 090f 3083 e0bf
00000450: 6441 01c0 fa8b e33f d7b8 a3ff eeb6 e03f
00000460: 26de ac20 6549 e9bf 2eb6 ec12 f9ca d7bf
00000470: da44 206a 9f70 e93f 50e2 38d9 544b cebf
00000480: 7e4b 4338 b59b e6bf 9f0f 3f84 d1f0 e63f
00000490: 9b14 1240 4034 e9bf bc4d ce8b 4d48 f4bf
000004a0: beef 1cbb af42 e63f 7bf8 380e a95c e5bf
000004b0: 3380 504a 3c76 d4bf de09 4934 a69f ec3f
000004c0: 950a 580f 0bbb eebf 3dd9 5660 0eec cbbf
000004d0: c6cf d295 46b4 dcbf fd9b 484c 7f11 f1bf
000004e0: 4c32 0c0b e729 ed3f d5a7 9f26 4902 ba3f
000004f0: 061e 2988 a808 cabf 4547 6b48 06fb e93f
00000500: 01f5 33c3 3a3e d33f d494 274f cfd3 e13f
00000510: c83d 8fca f6b1 f13f 915e f68a 5a1a e43f
00000520: d9e0 2ad1 7cb9 e53f d483 f974 babf e43f
00000530: 9633 6c3d db14 e5bf ee21 d4ad cdf9 f0bf
00000540: 6a33 924c e79c b5bf e08a efb9 1937 fcbf
00000550: 6edd cd92 001c a33f 1aea bac8 32b4 f23f
00000560: 04f2 2092 5c92 e43f 05e1 0973 7a0b d93f
00000570: 9c64 5aeb 8112 cb3f 892c ae06 9ba7 e93f
00000580: da33 a0da 7598 d63f add4 7731 3d81 f5bf
00000590: 05c8 fe27 5e78 bcbf 8d71 0c11 f987 efbf
000005a0: 6763 ff4f 2b59 d1bf 7aeb 8d83 ff81 f33f
000005b0: bcac c12f 748e a33f cf02 f265 2de1 e43f
000005c0: 2447 ff28 91b3 f33f f880 7833 8ce5 e53f
000005d0: 346c 4dde 4aa0 d2bf d8d1 e472 ab06 a23f
000005e0: e9ac 50ee 88b8 d33f 0ac0 9af1 ea1b c03f
000005f0: f986 29dc 54a5 e23f a987 f830 834a c13f
00000600: 0ce6 1ce3 13c4 cc3f 0b8f ab2b 6e08 cb3f
00000610: 5235 0d77 2fd7 00c0 b18b 63ad 5749 ea3f
00000620: 3f0b d98c 89c6 c4bf 7ff3 6d10 d968 d0bf
00000630: 71c6 9aed 81bc 973f 8b93 7b83 1748 b4bf
00000640: f9ca 9bdf 90f6 b53f a645 163e 3ea5 e0bf
00000650: 7c7c 2282 56ee d2bf a80c f5a3 8daf dd3f
00000660: 0baf fa5b d23c d53f 1620 f3b1 e0b9 f1bf
00000670: eaaf 70bc c810 f53f 55ce fc87 e758 ed3f
00000680: f834 87dd 1d0b e03f 3263 f8c7 511a dbbf
00000690: e9ae a655 e647 d1bf a075 f9a4 fe2f f73f
000006a0: e285 5cdf 2a0f d8bf e7f8 c56d a2da be3f
000006b0: 37e5 13ac 33dc e93f 2f77 3231 4e30 b5bf
000006c0: 2ef5 b07d 8beb e0bf 00c8 757f 2c94 c9bf
000006d0: 3890 0ae9 d091 a83f 7e0b dc95 f58b e23f
000006e0: dfe4 589a c36f ec3f a47a acae 1876 e03f
000006f0: f863 a03c bf7e b03f e295 176a 2d31 a73f
00000700: 6f3d 2dee c435 f5bf 571d 5d40 0373 fb3f
00000710: 5368 3ec7 0d15 0440 8bac dc4b 9f97 01c0
00000720: 34b4 3103 7ff0 fcbf 12ac 56c9 3627 00c0
00000730: 2ff6 0dc0 0495 0340 d36a 4784 4581 d73f
00000740: 9998 deaa 2e84 f13f 495c b4f7 4f28 01c0
00000750: 0519 1951 67d8 f9bf be72 6c77 c4b5 04c0
00000760: 5c12 cc88 ea55 fc3f 6547 da81 5030 c03f
00000770: e20c 1216 4d02 0e40 9f60 e77b 4d49 0b40
00000780: e7cb 583d 4618 03c0 240a 9ea9 6ba4 f9bf
00000790: 2a20 a468 2479 f93f 1129 e465 26d0 e33f
000007a0: 217b 9378 f5f2 05c0 a19b 0a63 d08c fc3f
000007b0: edd1 1455 7de1 0240 d9f2 e09d 7243 0640
000007c0: 08fb b389 c82b f9bf a884 53a8 9dab f3bf
000007d0: 6b63 0f69 0a9e 05c0 42ed 11ab e535 a73f
000007e0: d46e 922d 3ca7 0a40 63bc b0c6 0a8b f83f
000007f0: 4989 5ace 113e f03f 3cd1 35d5 4fc5 04c0
-0.636205655116368 -0.7019665620769823 -0.6209402108859988 1.6308062303843898 -0.7845329647044083 -0.14814918117858975 0.3408778721997511 1.196557891067312
0.9097193584712453 -2.2983238232817085 1.186552953088251 0.4001526804166202 0.13118816173326442 0.27166829675802684 -0.47597222172813475 -0.7041824230620135
1.5302314395826104 1.3354245866476906 0.7882304033505393 0.8924534548884301 -0.968999530879579 0.4041316960137621 -0.16236234051808468 0.5816920771646876
0.15202613916143395 0.2699465650588212 -0.643890814553232 1.2478521217472447 -0.5312360511662734 -0.3411845369342619 -1.3155622974003889 -1.1123823280499563
-0.30140796027306527 -0.1277188589501872 0.18462610970968682 -0.05302517268013763 0.2864050008473234 0.048001570377652715 -0.033185177548540674 0.1509623440601749
-0.4087851699657087 -0.4134391031731337 0.006088646157882475 -0.2257820005236435 -0.3191286426299841 0.04029927534410303 0.39062506954529264 0.0731458128260322
0.18243169323462677 -0.36936576969282336 0.3541744360216196 0.1524504476506381 0.3849508731842023 -0.2855164830673451 -0.26482497555645246 -0.03768907189558276
-0.18333120524109092 -0.08892028235747243 0.20464555726570421 -0.07858620586376408 -0.2294594289652746 0.1676237663183187 -0.04386662008795339 0.26042891458403966
-0.37608171906221116 -0.4660040279572186 -0.2587159397606877 -0.010209085833265156 -1.019465656596088 -0.09737079890164026 -0.3050851221460582 -0.1867027695850742
-1.2805400241824028 0.1803648356805384 -0.3436519559314344 0.560207324251414 0.10883768091285166 -0.7308409110178286 -0.3253474955132844 -0.1507657615313725
-0.3600126306611639 0.5695844190372255 -0.27021636252484704 0.3518741009454635 -0.7097880479281217 -0.45655898971063624 0.3739606835937094 0.5568890403105168
0.6505038349340192 -0.007838381849955726 -0.4150397160469571 0.15719760834866164 -0.7448364173262123 -0.6156894022720819 0.46085338812878346 0.33364748574270564
0.2995451523430377 0.33818294978862895 0.35876875102223477 0.15653422611406062 -0.25532647053718927 -0.2889711289093428 -0.0035970083292523386 -0.3480550652371504
0.05987593542748065 0.022986213452702648 -0.13316062934170897 0.343773315430363 0.25648163312674155 -0.22420449251093888 -0.1363042128980476 -0.12555729791234843
0.10182304676043513 -0.298064177557849 -0.3317213388418522 0.2329105052270799 -0.2033866988219274 0.3915680001615183 0.18313382185253 -0.22552770657390311
0.2742592787024834 0.2389731655134669 0.2531932040054715 0.011895896610766255 0.05570098952622346 -0.41728559929316406 0.18175291827422757 -0.002645860197230339
-1.2208844525664464 0.6501164685102304 -1.0722586096473714 0.9544256847878302 0.254466009968509 -1.0818343722711625 -1.1744287282947548 0.30355759160886825
0.8315305105984084 -0.516014127130993 0.6108373403640539 0.5223307602844 -0.7902093542279018 -0.37176348541365456 0.7949978897833276 -0.23667393309166807
-0.7065073107608979 0.7168967802940535 -0.7876282931689674 -1.267652078739828 0.6956404356528691 -0.6675610807212843 -0.31971652276297674 0.8944884320447348
-0.9603324222265025 -0.21814136222901395 -0.4485031569595289 -1.066771791441851 0.9113650527738826 0.10159737770996398 -0.2033892311903715 0.811892644351453
0.3006731897620086 0.5571056886662071 1.105948249099912 0.6282170023068422 0.6788925252249342 0.6484043392812233 -0.6587959479962702 -1.0609871664220196
-0.08442540759479092 -1.7634522688974172 0.03732301513712853 1.1689937439938434 0.6428664068294556 0.391325580923436 0.2115023039994285 0.8017096643901748
0.3530554423348896 -1.3440524990412925 -0.11121166683622626 -0.9853482563953989 -0.27106745540873195 1.219237817653918 0.038196211652427675 0.6524874678726408
1.231339607377273 0.6842709546363315 -0.2910334750101271 0.03520713593971764 0.3081381156250261 0.125851982088989 0.5826820659678723 0.13508644000199624
0.22473381604667997 0.2111947739823495 -2.105071001139245 0.8214529406071646 -0.1623088777287993 -0.2563994083828262 0.02318003666613894 -0.07922503433253618
0.08579354724114897 -0.5201712811123584 -0.29579699238269774 0.46383992206046765 0.33183726293894783 -1.107880301586197 1.3165976868576714 0.9171025901800457
0.5013570143434256 -0.42348141220422797 -0.2700134121357523 1.4492174572290892 -0.37592574894560304 0.1205235975266735 0.8081301079647919 -0.08276833249189218
-0.5287530379206709 -0.19983440612446657 0.047987488219661534 0.5795848776764243 0.8886430754274918 0.5144160663220032 0.06443400602474003 0.045297068787288244
-1.325627260568435 1.7155792726715242 2.510280186264063 -2.1990343023986205 -1.8087148785373417 -2.0191474656653634 2.4477629665623435 0.3672651092326024
1.0947710680571048 -2.1446837760845807 -1.615332905568324 -2.5887536363573806 1.770975622524154 0.1264744409605171 3.7511235927828332 3.4107923202501094
-2.3868527214740314 -1.602641737525695 1.592075737718924 0.6191589345992573 -2.743632261276972 1.7843784207159177 2.3601023337343947 2.782933457782161
-1.5731892947221144 -1.2293984008067955 -2.7021682937451508 0.045333077557155224 3.3316577492058546 1.5339458237974888 1.0151536999406565 -2.5963436753319495

conv1.bias f8 [320]
00000000: 1795 2f70 5258 a73f 6429 b4c1 9220 bb3f
00000010: 70ea 17e3 fdfc c2bf 80ab bd40 596a a03f
00000020: ab7b 0c0d 1f8e cabf f68c 9fb8 674e c0bf
00000030: a411 67fb 6ccc cdbf c47c 61f0 3696 973f
00000040: 1a59 20de c8a0 ac3f de2b 00f0 e4d2 f03f
00000050: 00a9 d9fb a813 7e3f 8fe9 cc08 d75e ad3f
00000060: f585 3062 f30a c8bf 85d9 c7aa 03cb b0bf
00000070: 23ba da83 5d29 b43f 8c48 c441 8c88 603f
00000080: dec5 55ab fb48 9a3f 06b6 c1aa 391e b03f
00000090: 0576 c704 00ae a53f 7c41 e79f 18d8 b53f
000000a0: 5a3a 3fa6 c6c9 bc3f 5c19 dfb5 9fa3 ccbf
000000b0: e811 f410 3e68 c9bf 693d 1de6 deff b53f
000000c0: adcf 8e0c 2333 b43f 2566 9588 91e6 b53f
000000d0: a630 50e6 2b49 c1bf 2a96 d65a 50eb b33f
000000e0: 735e a63e fd61 613f 2623 4496 a08a b43f
000000f0: cb00 0b8b a6e1 b8bf 7536 c8ac f410 c8bf
00000100: 5fd0 ad9e bd44 b1bf 95c5 c8ad 0309 b1bf
00000110: 7521 9788 3233 a4bf 70fd 3fa8 597c bc3f
00000120: ab7b 2485 1d5b b23f b96a cb80 291b a9bf
00000130: a397 a2e8 1f44 a33f d966 538e 4db7 b0bf
00000140: 9db4 64a6 2245 b1bf c0f3 d745 931f de3f
00000150: 5235 2e5a 73de 8d3f 7d64 cc94 89bb a93f
00000160: 14de 8f47 42e3 cabf 037e e7d3 5b96 a2bf
00000170: 4d16 2bc6 b35b a8bf 90bb f068 9f88 b7bf
00000180: 6d81 a549 98a8 a1bf 7cd3 65fc f7df d33f
00000190: a7f6 5568 c5c7 bbbf 758f e624 22c8 cc3f
000001a0: c53b a784 fb3c b13f e7ec 1a8d 923b adbf
000001b0: c0bd 19bb 5380 aa3f bd5a 1dac 95e0 a93f
000001c0: ba07 89a3 01a4 973f 6baf 212f cffd afbf
000001d0: f9b1 a88b cc90 a13f 63fd 11cf 3bfc a1bf
000001e0: 1b11 3351 7919 adbf e2c3 fb22 ef4d c23f
000001f0: a196 1136 d67b aa3f 01f1 95d7 4ba6 a63f
00000200: ccba abf3 9fe4 afbf 84ab 45c2 3922 acbf
00000210: 8986 fc45 4102 c13f 24cb da60 6b43 ad3f
00000220: b8ce bd5f 9ff7 5b3f 3689 a94b 448c b93f
00000230: 52f6 b9a6 de2f b8bf 9a11 7e28 28dd b8bf
00000240: c55b 07d9 7a89 bc3f 8111 f586 c856 bc3f
00000250: 4632 a112 a823 acbf ef12 945c 62a1 a93f
00000260: 61ec 507e b279 bd3f dd6c b8b2 950a afbf
00000270: 5f56 8c4c ffc6 ab3f 85b7 b2c2 beea b83f
00000280: 972d b15e 6045 d2bf 4bc6 2a08 9876 ae3f
00000290: 822c 986b d974 aebf 248a b285 53a0 a0bf
000002a0: 611e 62d0 83af dc3f 6dff e3f8 cb1e bd3f
000002b0: b960 330d a91d b73f 551f bd12 40bf 8cbf
000002c0: 0443 e40a a252 afbf 3d92 4bd9 8ac0 b5bf
000002d0: d59e d690 26ec c5bf 1d23 6545 bf43 b73f
000002e0: 3a6d 0d87 00bf ac3f c980 b983 3785 9f3f
000002f0: afc4 b8bf 91f9 b43f be63 0c9f e54b 993f
00000300: 1b66 40e1 aa1e b6bf d7e9 a2d6 04c7 a5bf
00000310: ea62 5979 1e14 c73f 72c9 e2c8 48af a83f
00000320: 2378 8d26 0faa afbf e3d2 0db8 3440 b03f
00000330: 6bec e2b7 8d95 adbf 3096 8e69 5107 aabf
00000340: 7623 bc8f 232a b33f 5951 12f4 899f ad3f
00000350: accc a0d2 50c1 e43f e945 1698 a8cc acbf
00000360: 9bee 10e9 439a bebf 9c8f 9d78 3b69 acbf
00000370: eb4f 7c3f 96fa c7bf 7e79 15ee ba3b b3bf
00000380: 4a44 b9cd 970f a43f dabf ba0d 05e1 b0bf
00000390: 947b 08ba 737a b33f 3ada 01fe ddb9 b13f
000003a0: b3e3 465f d9be b1bf 7195 e71a 54e8 a93f
000003b0: 18c9 aa0a afb1 b5bf 62a0 a3b6 751c d33f
000003c0: 5c31 d2af 2de1 a23f e023 91d5 74c2 c2bf
000003d0: 5a01 1a46 a76d b4bf d659 178a 8a46 9fbf
000003e0: 5dc0 a954 f69f afbf 4f1e 7e26 f3fa 703f
000003f0: d28b 1629 c2ae b6bf d852 0163 734f af3f
00000400: 0f01 c010 b5b2 853f 20f6 07dd 0405 ba3f
00000410: 9cff 2670 4839 a1bf 03e7 2b94 2a0b b13f
00000420: 0102 a811 6a5f b5bf 8a9c cc54 aee2 8ebf
00000430: 5d0e e2a7 5f3e d23f 1634 5e88 000e b13f
00000440: 9f70 c39b 2963 b23f b8e5 c491 6148 bb3f
00000450: 9664 cbb1 6db1 b23f ee62 6609 abf8 b63f
00000460: cbc6 3186 137f bc3f 7772 453b cbfa b3bf
00000470: 8693 50c1 b31a a63f aaf5 07fb 0f5c c7bf
00000480: 2d30 efb5 5a6c 76bf ed2a 9d8b 3947 b33f
00000490: 514d f978 c8f2 7ebf ef83 6ced 6daa e73f
000004a0: f9da 9bae e093 b63f f26a 24e4 e8e7 b0bf
000004b0: d787 e7a7 f0b5 c7bf 7d09 9ef3 22ce b03f
000004c0: 4808 9431 3bf6 97bf 804f eb9a 77e8 c6bf
000004d0: 5549 a16e 5502 c7bf 0866 e019 9e39 ae3f
000004e0: 3d7b 6316 b878 ab3f e7d7 54d1 d533 c3bf
000004f0: 2661 03c3 58e7 c4bf f6b6 2c50 8491 b03f
00000500: 8c37 cf6e 0126 a6bf 50a9 5329 1c76 afbf
00000510: 9cec 24b1 66f7 afbf 62fa b9dc 1f3d b7bf
00000520: 7ed6 9074 1ebc bebf 68ad 1e16 7091 babf
00000530: b192 70e2 e096 d43f e607 bd00 1319 b03f
00000540: b4af b051 e641 b1bf b2b0 3a1d 85ce a1bf
00000550: a1ad fd1e b331 b43f 8ed5 f2cd 21ad b2bf
00000560: a2be 7d4e e01d b3bf fa71 a847 64b0 ae3f
00000570: adab a7f3 9cf7 ab3f 84e0 0fd5 864d b0bf
00000580: abc6 9550 2f3c b2bf 678a 4180 1c6e b3bf
00000590: 9511 a8bb 5ea5 c13f 9b68 e508 cc30 b0bf
000005a0: adf6 5819 95d8 ae3f 6c56 3759 fd05 a8bf
000005b0: 634e 7714 d750 adbf 20fa 9182 7f94 b1bf
000005c0: f4fe 52c1 1c96 b1bf 5618 6fd7 f428 ad3f
000005d0: c9d5 7ed4 5c67 de3f 1db5 a6d0 57e0 ac3f
000005e0: 48d3 59d5 968c ab3f 078a b241 3df2 ae3f
000005f0: 1369 5cbc eecd b1bf 6646 689b 3aa1 ad3f
00000600: df0a 9c2c cf02 ab3f 1f43 3c89 074f ab3f
00000610: 40a9 3160 c8dd aebf fc3c 9cd9 42bf b0bf
00000620: 9762 6bbc 202f b23f ea96 9165 7471 b5bf
00000630: 3b59 5297 e045 af3f 17cb c1ef 5b0c b63f
00000640: f15b 7dd7 2d2f b2bf cd8b 63f3 b531 af3f
00000650: 1307 ca4b cbd6 d83f 2921 6ec8 db7f b0bf
00000660: f045 31c0 8065 af3f 0e67 73d6 59b7 9fbf
00000670: 6826 6677 ecc1 a8bf 3b6a 4577 d295 a6bf
00000680: 157e 1c76 b929 b9bf c555 e236 9e26 ae3f
00000690: 0b35 3497 6f53 8abf 68ba 65ef 4faa aebf
000006a0: 8390 00de 7242 e33f e68e f4cf 8f4b d33f
000006b0: 203d c49c a298 abbf d578 a728 3422 743f
000006c0: 5f3a b00d b919 c33f c12c d994 49c1 b03f
000006d0: b89d cebf fd05 b2bf 312a 0716 3a3a b1bf
000006e0: 9697 7f8e 875e afbf 2ec8 acb1 e6cc b0bf
000006f0: 3561 19be d0a8 ab3f 9c6a 0cd8 cea5 b03f
00000700: 0ed1 96d5 75b5 a83f 6936 9426 3ee2 aabf
00000710: d4ea 6231 42e7 9b3f 368f 860c a7d3 b93f
00000720: edf4 340f 971a b13f e916 aebe d826 b43f
00000730: 6a8a e4bf 05fb c9bf 9948 f2fb 5039 af3f
00000740: fde6 535b 0877 b0bf 093d bdc7 aff0 ba3f
00000750: 9ae9 d902 c1c8 b33f 2cd9 f495 06ee be3f
00000760: 3605 710c fca6 b5bf 597b b8ef f44d b03f
00000770: 3278 2fa1 20a6 ab3f ef97 6c00 10af ae3f
00000780: 2bbe 1075 9400 c13f b06e 56e5 dcd5 a93f
00000790: 18a9 e524 b29a b13f bfbd 34ae ae93 b13f
000007a0: 8656 94b3 d309 c03f d32c 93e9 846c b2bf
000007b0: a61b 39f4 1463 b4bf 8f99 6f65 2cc6 ac3f
000007c0: 9fc4 cb74 661c b13f d08b 0679 f300 e93f
000007d0: 0cd1 ce6e e4b8 bd3f c2bb 2a0f 9c96 cd3f
000007e0: 6a09 cc46 8be3 ab3f 3ff6 a65e 42db c5bf
000007f0: 2cdf 93f0 5826 90bf 8662 50aa 29eb bb3f
0.0455957185693398 0.10596577862830753 -0.1483456953863711 0.032061375763837496 -0.2074621976580294 -0.1273927356224715 -0.23280107760923585 0.023033960744552898
0.055914189448389176 1.0514878630663058 0.00734296807568513 0.05736419660975677 -0.1878341893616803 -0.06559775275659348 0.07875618428327207 0.0020182361023524716
0.025669033367597176 0.06296120089401577 0.042343140204803155 0.08532861617937287 0.11245385702862035 -0.2237434042019214 -0.1984937269954934 0.0859355270197192
0.07890528732860842 0.08554944595871257 -0.13504551645053658 0.07780935495119282 0.0021219202219063204 0.08024028462035612 -0.09719315428356194 -0.18801744877457663
-0.06745514987943711 -0.06654379837779907 -0.039453105138423185 0.1112724338308817 0.07170280933904276 -0.04903535554122613 0.037629124782412114 -0.06529698109389005
-0.06746117174471285 0.4706772024217649 0.014584447087851036 0.05025892201792546 -0.2100603913711302 -0.036303395859928166 -0.04757463258787862 -0.09192844688435131
-0.03448940180783464 0.3105449642965181 -0.10851701543102853 0.22485758592403796 0.06733676899533154 -0.057095126843216985 0.05176030787412911 0.05054156995781998
0.02308657227172948 -0.062483286383978896 0.03430785374471052 -0.0351275148650483 -0.05683497539715373 0.14300336082626958 0.05172604951876037 0.044237489763846234
-0.06229114388940146 -0.05494862076269327 0.13288131635004088 0.0571549945574559 0.0017069870363827632 0.09979655120108508 -0.09448043413609611 -0.09712458599648813
0.11147277639916726 0.11069920821052472 -0.0549595377675343 0.05005938892467109 0.11513820251359298 -0.060627630297142444 0.054252603620778876 0.09733192685481924
-0.2854844021537359 0.05949854945846463 -0.059485239395223224 -0.0324731922821864 0.44821257924966146 0.11375117136412678 0.09029633114130577 -0.014036655971395065
-0.061177314595743965 -0.08496921353396032 -0.1712692458361206 0.09087748951163772 0.05614473007764294 0.03078161946757588 0.08193312578875366 0.024703586418670424
-0.08640544890695205 -0.042534018707971626 0.18030148434879517 0.04821231319637577 -0.06184432359326333 0.0634797047949394 -0.05778162831980967 -0.050837082038281856
0.07486173876908517 0.057857810062304345 0.6485981096106079 -0.05624892097979368 -0.11954140129176453 -0.05549035880429118 -0.18733480548746625 -0.07513016045183993
0.03918146501803983 -0.06593352875893235 0.07608722011398888 0.06924235774372614 -0.06931837631317599 0.05060065105844103 -0.08474248896053316 0.2986120494447332
0.03687422534230464 -0.14655933788370046 -0.07979817830528671 -0.030542530706805092 -0.061767289957857165 0.004145574384785868 -0.08860410216452344 0.0611530359607621
0.010594763349218298 0.10163908382670472 -0.03364015931174366 0.06657663457363232 -0.08348715716420686 -0.01508079716002288 0.28505698580577193 0.06661990479752009
0.07182560017412463 0.10657319840256363 0.07301984396635172 0.08973187427035231 0.11131402994376598 -0.07804556080868418 0.04317247137831885 -0.18249702222230485
-0.005474428499791667 0.07530555399459234 -0.007555754753031011 0.7395543706116977 0.08819393408689881 -0.0660386616695339 -0.18523987005670392 0.06564539382637764
-0.02340023508168823 -0.17896933617032218 -0.17975871946198177 0.0590333372676462 0.05365538857744532 -0.15001938554058755 -0.16331014177445374 0.06472041089429212
-0.04325870969442666 -0.06144798283078734 -0.062434395908405466 -0.0907764352686882 -0.12005796762317719 -0.10378170528445241 0.32170889008765885 0.06288260238673579
-0.06741179937733827 -0.03477874738504862 0.07888335711111562 -0.07295428541222845 -0.0746746245983965 0.05993951201182664 0.0546235129766822 -0.06368296338757956
-0.07123084752472646 -0.07589891558885996 0.13785919344821865 -0.06324458329382525 0.06024614271562476 -0.0469206973463486 -0.05725738644437397 -0.0686721509718855
-0.06869678230122728 0.056953097627726976 0.47505875350483656 0.05639910146724445 0.05380698542004453 0.06044188906641428 -0.06954853151947686 0.0578707041460234
0.05275580806303081 0.053337321760528626 -0.06028581785433795 -0.06541841328384018 0.07103161430439751 -0.08376243095116434 0.06107999655903248 0.08612608531420239
-0.07103239546755426 0.06092613788657495 0.38810999299322296 -0.06445096629443427 0.06132128091907052 -0.030972865785634567 -0.048354520392490496 -0.044111802157847234
-0.09829291471077568 0.05888838214847739 -0.012854453851583366 -0.05989312932330365 0.6018614135723656 0.301486924249032 -0.05389888919500607 0.004915431733449623
0.14922249954584552 0.06544933208458571 -0.07040391857900985 -0.06729472196381249 -0.06126807798845772 -0.06562654340521654 0.054022334294759146 0.06503002905484795
0.04825943214692262 -0.052507345399232026 0.027249368919664743 0.10088581138421379 0.06681198235760961 0.07871775298380225 -0.2029730975128417 0.06098416400449586
-0.06431629399949297 0.10523508669324512 0.07728201217279321 0.12081948433919781 -0.08457923225161754 0.06368952610544677 0.054001826930957356 0.059929370929509555
0.13283019748767919 0.050459769244495134 0.06876672173317322 0.06865970376087825 0.12529989498641586 -0.07196837141525529 -0.07963686907269948 0.056199443228069794
0.06683960296119772 0.7813660968571359 0.11610248284597818 0.23115874043057089 0.05447039832326335 -0.17075376149834828 -0.015771283801739575 0.10905704887444231

conv1.lin_src.weight f8 [320, 9]
00000000: c79f 5bce e524 d83f c451 d19d 5554 da3f
00000010: f9a0 0d01 c6ec d53f 3da9 c041 eb3e b73f
00000020: 1dd9 c9c3 55dd b63f ee07 9501 b5b7 b03f
00000030: 3e17 107c bfda d2bf c74d 9be1 439e e1bf
00000040: 75e0 8d18 5eca e1bf 7388 444b 2a6b f13f
00000050: e2eb 0816 f972 f23f 12c1 7775 1790 ea3f
00000060: 03b7 47e3 b7a9 d33f 833e 0093 090e a43f
00000070: a77b 4498 f928 d2bf eaf0 c873 0438 e9bf
00000080: 757c 21b6 70a1 f2bf 2c02 72ec 737b f2bf
00000090: da12 115a b8e7 e0bf 00fa eb8f f5a2 dfbf
000000a0: d25c 8f70 94e3 d7bf f5ae 8f42 ec0a a63f
000000b0: 0183 6f66 a644 bc3f f945 a2d9 bf38 7bbf
000000c0: 054f 12b9 94b5 cc3f 8e11 bcff e555 d93f
000000d0: 89ca 3730 4295 d73f c29e 72f4 0b75 e33f
000000e0: a2e2 4abd 13b1 e13f d17e 532f 79ba e03f
000000f0: 0e93 ae93 8b9a d73f 30b4 b83d 3b22 d63f
00000100: 0f5b 7b23 15f4 d03f 5015 0474 74ee b6bf
00000110: 6fe8 39f3 5185 cabf 7acf c171 a2ad d1bf
00000120: c879 b9f5 cd0e e6bf cf7c 20c7 0039 e0bf
00000130: 2173 e099 8257 dcbf fcc2 8bf2 7e27 c6bf
00000140: 22f0 ded3 dbe6 b0bf 39df a5e9 a208 b63f
00000150: fdf8 3ce1 bfb5 ca3f c4c0 89ca 575e e43f
00000160: 0371 a409 9481 e43f c41d 938e 7e4b dcbf
00000170: 014b 3927 1142 dfbf dc47 5e4a ed1e d5bf
00000180: 1173 8643 bd64 bbbf 4d39 f30d 44a5 bb3f
00000190: 75d9 74ee 59b6 95bf c983 baba e5be c53f
000001a0: d050 2297 63f2 da3f e28d f3b5 9e55 da3f
000001b0: 80eb 9ace 2d18 e3bf edf0 e889 0f78 dfbf
000001c0: d0bc 7966 8822 d3bf 92e3 f9d8 e9f1 9bbf
000001d0: 216e 814d 0526 a73f 8ce7 d6fc b265 b9bf
000001e0: 6241 7fa2 b0be c43f 07b1 8015 ede0 df3f
000001f0: c617 3d43 f20a e43f e0bd 1f34 80fa df3f
00000200: 936c cade 84ad d93f 00ee 4080 986d da3f
00000210: 67e5 44dd 7f2f b5bf f23d bbe1 6e56 b5bf
00000220: e225 7dc8 2d6f c0bf 96fd 6e48 908d d5bf
00000230: 6a0a 79dd fe18 d4bf 1334 f765 8385 d7bf
00000240: e711 95ee fbdb e53f 13e6 ef97 fac0 e23f
00000250: f736 e0c5 c182 d43f af4d 1fca 311d b33f
00000260: eef4 cc1b 9a39 a53f bca1 76cc 8223 acbf
00000270: d63a ca8b fa02 debf 5e60 47b9 e578 e5bf
00000280: 37d6 3238 1ee0 e0bf c6c4 937f 8f0c 04c0
00000290: 62fd 92a7 eac6 02c0 35fd 844e 01c5 02c0
000002a0: d2f4 fcca a7a3 05c0 2d02 f1ba 1275 05c0
000002b0: ddde c6ee a180 03c0 53a0 992b 0abd ffbf
000002c0: d7fd 5ca9 522a 01c0 59d0 8d06 9110 05c0
000002d0: 7131 34b9 9378 e03f ad54 2173 1b07 d43f
000002e0: d5ca 492d 6787 e13f 6c31 bb63 d01c d23f
000002f0: 3a5f 8da5 9a4a 6d3f 839d 08a3 5286 c23f
00000300: 6242 abae 5477 b3bf 4f3f 2a13 1859 c2bf
00000310: 71c7 3dec eae8 ccbf 61ca c764 3514 e73f
00000320: 51aa 821c 275e db3f 854f fc22 7386 d83f
00000330: 951a 07ad 883f 883f 4e33 f489 4e4a 803f
00000340: 0e7f 8b2e 4517 66bf 6c8d 63a3 d992 dcbf
00000350: 6995 952e 64e2 e0bf 5bbe 57f9 2237 e3bf
00000360: 50fa a00d 1173 e6bf f0d2 5143 f2e9 d9bf
00000370: e0e3 e47b 3083 d5bf ccc4 590c a4bd bebf
00000380: 7b08 2c9d 1202 b23f 5a86 ced0 bb5b 953f
00000390: f603 26f8 8139 d13f 03b4 a966 52db dd3f
000003a0: 128d 798f 0320 df3f cbd5 fe7f 330b d1bf
000003b0: 737e 448a a984 d9bf 96bf 9012 706b c5bf
000003c0: d06d 373c b3ee b7bf 68fa d69a 1f09 92bf
000003d0: 0270 a8a5 9371 ad3f 7b6a 17fc fb0b ce3f
000003e0: c876 20aa 46da d83f 6b53 7634 b23f d93f
000003f0: bdc9 a4cc 5711 e33f 6737 8825 5a2e e03f
00000400: 2363 5ac2 a3b8 e33f 2925 07e1 19eb c03f
00000410: bea8 0669 49fa be3f a4d0 ba17 c2e1 c1bf
00000420: 06c5 c2ff a1a2 dcbf d2e5 bc46 c3e4 e5bf
00000430: 5b68 db31 8d86 e7bf ec63 fb66 72e6 e0bf
00000440: 8152 3e87 5487 d7bf 5b30 2ed5 bcf5 b5bf
00000450: 29bf 62c5 6a82 c3bf f376 14e9 6434 b43f
00000460: bcf2 f987 2486 c03f 5c74 527d 85b2 d13f
00000470: 288f 890b a4e2 d63f dc44 d7c1 85b7 d73f
00000480: 90bb 4ac6 1344 e53f 72c9 7b4a 9faa db3f
00000490: f453 2e28 b981 dc3f 1f0c 5d7f 32ac c03f
000004a0: 097b 5517 0d66 bd3f 5066 5361 fc75 a8bf
000004b0: 802c 8618 a243 e1bf ebbf 0320 c88f e2bf
000004c0: 8cd1 0a88 ce0f e3bf 5277 fac9 93ef b63f
000004d0: 852a c53a b2f8 b73f c196 815e 53a2 bfbf
000004e0: f242 fae0 b871 b23f d5c9 a7d7 06df cb3f
000004f0: f699 c470 c0be c23f 3ed2 0cc4 d564 c03f
00000500: 0646 e510 ae7e c93f c07b 9c62 fcd3 d23f
00000510: c387 054c 7c1a e43f a711 2680 9c48 dd3f
00000520: cf5a 412c b573 cf3f 875b 6fb8 c4bd c33f
00000530: 4879 95ce 1381 bbbf 67b1 dbaa 2593 b4bf
00000540: 0c7d 599d c87d d7bf 98f9 924d 913f dabf
00000550: f0ee b1bc 8740 e1bf 3103 3b56 da3c e5bf
00000560: e7ee 2994 fc31 e2bf 6ea9 cd4c b1cc e1bf
00000570: 45a1 c0c2 a1ba cabf 8bce 1eed 3274 b4bf
00000580: b55f b5c6 477f c53f 153b 8f66 5a01 dd3f
00000590: ae74 05a2 01f8 e63f ebb5 1c34 bace ea3f
000005a0: 47e1 d6fb fd5d df3f f6b2 05e4 837c d13f
000005b0: 513f c553 3092 d13f 8eb0 d341 7b43 963f
000005c0: d282 e9fb 592d b4bf 8c3f 422c 023d a4bf
000005d0: b78c 870b 8002 d6bf a31b 18dc c113 dfbf
000005e0: c3fd bd3c d4de d5bf a6f3 787b 3153 e6bf
000005f0: 4bb4 1620 d608 debf e2c7 70d2 7eb8 debf
00000600: cb3b 5279 5048 b1bf fe13 ca13 77e6 a8bf
00000610: a978 248b 9f78 b33f 6431 f935 56e2 d73f
00000620: 2524 9b8c 0c2b dd3f c585 3ce0 d6fb e23f
00000630: 3656 68a1 978d debf 7949 a9ae 5300 dfbf
00000640: 05d7 9858 0499 debf 273f 27af ca2a d0bf
00000650: 9e77 21b1 059e aebf 4310 6453 e787 c23f
00000660: 0897 73c3 32ce d13f 3ed9 f7c4 7335 da3f
00000670: 3c9e 3048 81c0 e43f bba7 0225 195f e73f
00000680: 4280 b298 e9ca e93f 4c0c 2cf6 adc7 de3f
00000690: f641 ae41 213f c43f 4e73 9254 13ab a6bf
000006a0: cf4f 74b7 abfd a9bf 66ad ee99 2c23 e4bf
000006b0: c6ff 978e 7a9e eabf d269 522a a3bc e4bf
000006c0: fd6a 1050 a54b e63f 0b6e dc9d 3ada e73f
000006d0: f197 8bb5 092b da3f 8d3a 04b2 7315 b13f
000006e0: 7ca1 7563 4b62 993f ca85 8665 87a4 95bf
000006f0: 3df1 c9c2 90c6 e1bf c4d9 7e4d b163 e7bf
00000700: 2a6e db03 6649 e5bf 7f67 92ef 153b e93f
00000710: 44d5 9a8a f1c8 e33f 6eb7 fce8 e251 e03f
00000720: 37e6 5816 16d4 d43f cd3d a63d aea6 373f
00000730: 5e48 18d2 586a c8bf 9ce1 3a38 93e5 e4bf
00000740: 1687 b2ac 34a2 e6bf d702 5a3f 492e e7bf
00000750: d051 1803 36e5 e0bf f85c 1f9f 836d d8bf
00000760: 264c 46ac 4157 d4bf f812 af04 7dcb c5bf
00000770: 47fe 958d ae62 a8bf ee9c 3097 f659 613f
00000780: f548 caf1 96ea cb3f 2d31 421b 82e3 da3f
00000790: 416d 3fdc 64c5 e03f a9ee f42b f596 e0bf
000007a0: ee20 5866 9833 d7bf 2310 9339 136d ddbf
000007b0: fa96 5cb1 8428 d9bf b0cf c6c4 1287 b8bf
000007c0: daa3 e4aa cb84 d03f d3fa e504 1baa d03f
000007d0: c2ba f2e1 c0d3 e83f 2f04 e578 1913 ee3f
000007e0: 6c12 cba3 cde9 ddbf 076c fd36 0556 c5bf
000007f0: a282 3dc0 e554 b2bf 8e2e e2ea e7cd a33f
0.3772520556653913 0.4113973656833674 0.34257650473456597 0.09080381732261329 0.0893148043631737 0.06530314720751537 -0.2946013175536456 -0.5505694776897422
-0.5559530715536442 1.088663381590348 1.1530695782409954 0.8300893110554475 0.30723378367734727 0.03916959685750234 -0.2837509142863674 -0.7880880605148637
-1.1644141306385596 -1.155139850248939 -0.5282861479868999 -0.4943212419019858 -0.3732653712481354 0.043052085042146894 0.1104225158774277 -0.006645917334155532
0.22429141079611994 0.39586782430731027 0.3684850188139213 0.608037927090628 0.5528658578033012 0.5227628635729734 0.36880769178451167 0.34583931949129276
0.26489761796021666 -0.0895760329477373 -0.20719360710410537 -0.2762228117855937 -0.6893071936900066 -0.5069583787152626 -0.44284119631793045 -0.1730803188616149
-0.06602262423160757 0.08606928066535326 0.20867155549962738 0.6365164714643687 0.6408176601721894 -0.44210781024272827 -0.4884074099583558 -0.3300126291516088
-0.10700590990604676 0.10799050655916638 -0.021203427485681787 0.169888225723325 0.4210442520063795 0.4114758278721792 -0.5967015300042107 -0.4917029234673141
-0.29898271567703905 -0.027290014141246717 0.045211950026637256 -0.0992080561908592 0.1620693963473157 0.49810340022919813 0.6263362229590193 0.4996643551848745
0.4012157607737176 0.4129391911007758 -0.08275603439405686 -0.0833501149274907 -0.1283929089498051 -0.33676535676564734 -0.3140256083317242 -0.3675240035780131
0.683103528958381 0.5860569922944613 0.32048076938450215 0.07466422257066684 0.041455093282346187 -0.05495842691317729 -0.4689318051468211 -0.671007978317913
-0.5273581597927607 -2.5061330763788616 -2.3471272556050033 -2.3461938986144113 -2.7049098833509584 -2.682164631347652 -2.43780886215596 -1.9836522772912033
-2.145665476942422 -2.633089114382568 0.5147188775313635 0.31293379061873844 0.5477786907707364 0.2830086683213924 0.0035756130641110525 0.1447242065489541
-0.07603959335689006 -0.14334393440048607 -0.22585808310719416 0.7212168663375672 0.42762162956447464 0.3832061616569649 0.01183993127859865 0.00795422895910183
-0.0026966429908127426 -0.44646302181191433 -0.5276356611108614 -0.6004805440879396 -0.7015462175548439 -0.40490395139867896 -0.336132164945921 -0.12008118917016758
0.0703441270561899 0.0208577486224669 0.2691349910092521 0.4665113451545155 0.48632897387706564 -0.26630866527133595 -0.39872206213656297 -0.16734124094500363
-0.09348602504854076 -0.017612928224247787 0.05750714680854686 0.23474073228029 0.3883225118059781 0.3945127022100709 0.5958670613238649 0.5056582196282137
0.6162890239675999 0.13217471587840038 0.12100657285796765 -0.13970209273032197 -0.44742631889955964 -0.684175146255422 -0.7351747487803196 -0.5281307231299457
-0.36763489920966924 -0.08578090862846592 -0.15241751325583522 0.07892447176388 0.1290937103221007 0.27652108419881016 0.35758305670445845 0.3705763237931714
0.6645602105034971 0.4322889544847818 0.44541768001482684 0.13025504321021317 0.11483842677760604 -0.04777516067560994 -0.5395060042368556 -0.5800514817510679
-0.5956795365405454 0.08959315949547644 0.09363855299776887 -0.12357064301758226 0.07204776280037686 0.2177437355999944 0.1464462805390238 0.12807724068410836
0.19917846512775855 0.2941885912895792 0.6282330975338869 0.45755684389612344 0.24571861897375988 0.15422877317061198 -0.10743831437637141 -0.08037028714506321
-0.36705222479027166 -0.4101298577842498 -0.539127224488281 -0.6636783298673433 -0.5686018842529535 -0.5562368869844201 -0.20882055291554927 -0.07989805497236994
0.1679467888122851 0.4532075883443423 0.7177742161253684 0.8377352731528708 0.49011182397545777 0.2732248045711424 0.2745476549216522 0.021741796391254335
-0.0788170089740661 -0.03952795782345139 -0.34390259862830014 -0.48558088773318725 -0.3417254059968082 -0.6976554309436451 -0.4692893327108478 -0.4800107054790016
-0.0675096794313809 -0.04863330952233723 0.07605931422264924 0.3731894995769578 0.45575250369126 0.5932421092622283 -0.4773921085592038 -0.48439495140805594
-0.47808941509298136 -0.2526118002397077 -0.05979936396828055 0.14477244922466256 0.278210345144871 0.40951246485873927 0.6484991464576022 0.7303586695536447
0.8060195906036898 0.48093747177353374 0.1581765719133867 -0.044273952554454085 -0.0507634793704309 -0.629293728493775 -0.8318455491098511 -0.6480270220375195
0.6967341006996716 0.7453892787193025 0.4088768265631862 0.06673358055216223 0.024789026208425366 -0.021135440417884323 -0.5554889492482641 -0.7309195054611384
-0.6652097773871379 0.7884626082552443 0.6182792384267164 0.5099958944826832 0.32544471914625056 0.00036088708807199555 -0.19074545153177075 -0.653024301361302
-0.7073005078311521 -0.7244001614891101 -0.5279798565339267 -0.3816842130595002 -0.3178257162446151 -0.17027247170167192 -0.04762788275092738 0.0021180931303380534
0.2180966072670071 0.42013600027054815 0.5240959455217437 -0.518427453854618 -0.36252412790828614 -0.4597824156046519 -0.39309804268337667 -0.09581105522266742
0.25810519875318294 0.2603824184260876 0.7758488095331233 0.9398314820501862 -0.46739521975931697 -0.16668763337187917 -0.07160793250433042 0.038680312559418714
