legacy/DG-1D/GNN/GNN_ModelNew.pt (torch, 36481 bytes, 10 tensors)

conv1.att_src f8 [1, 10, 32]
00000000: bb8e d52e 27dc 05c0 5dd9 7198 f1e0 0fc0
00000010: 49f8 6f2e 8c5a 0340 6698 68b3 c737 00c0
00000020: 9d82 150a 5d0e 0340 db81 d3db 2d8e 0740
00000030: 1e97 78ed 2406 0740 07eb e928 f4e1 03c0
00000040: 2e6e 3168 77f4 07c0 2452 afad f103 f3bf
00000050: 5f46 72a3 967d 02c0 0fcf 7582 ba9d 04c0
00000060: d48f 060b 0211 0940 2318 749b 5027 0040
00000070: e97d 9474 9ce0 07c0 c6a0 9d61 2451 0340
00000080: a8f4 6fba 58b2 05c0 c930 92d8 5f3f d23f
00000090: fbba 49d7 5264 04c0 543f eb8c e962 0940
000000a0: 53b3 e5a4 c51e 00c0 a2ea 0050 3e2a 0440
000000b0: 1e2c ed90 e404 0840 8770 f922 7b10 0ac0
000000c0: 41bb 8a62 3e7e 09c0 c019 c82a 0d6e 09c0
000000d0: 12b8 b02c c438 0440 9bba d7ec 8fc6 0540
000000e0: 2ea8 9a30 cee1 0240 6457 59e9 a75f 08c0
000000f0: 677a 5950 51f9 0740 7131 cae5 8acd 0540
00000100: aca0 5226 ab4c fbbf f6ab b7f9 d33b e33f
00000110: 0232 c49f 6417 d5bf efa9 7cf4 75f2 acbf
00000120: b2a2 4429 0def a0bf f9b7 a96e beb2 e2bf
00000130: cc37 905a 2ca9 9e3f da84 df40 e50e d63f
00000140: 38b7 6e9e 4698 c7bf c1eb 6cbf 5b29 cebf
00000150: a46f d8eb c902 d7bf a3f0 640a 814a b2bf
00000160: b021 e66d 1e2b f2bf 57da 2204 c25b e83f
00000170: 060b 0230 0196 9dbf 8358 6ae0 0493 d2bf
00000180: 3b70 263d f991 da3f 728a 844f e0b0 d5bf
00000190: 2e01 d296 26cc 673f 29d6 4cb8 ae37 bcbf
000001a0: e80c 98f8 eb20 d53f 65e7 0fc7 6a6a bcbf
000001b0: 9eca b9ae 5a85 e23f 063b 920f 44aa c5bf
000001c0: b61e 8a18 ae98 c3bf e947 ebdf 19ed b0bf
000001d0: ce81 49af ade0 d0bf 42a6 7734 8c00 e63f
000001e0: 908c 3aa1 6f85 b4bf dcb8 e291 c312 a53f
000001f0: ecb4 5e34 8765 c63f 5508 0096 acbe da3f
00000200: c640 ee44 79a1 ebbf f07c 2ed1 9f02 0840
00000210: 69ac 6e00 3e0b 0840 ed74 d5bc f1c2 0cc0
00000220: f419 201b 6f39 f0bf c4a2 33c0 43a4 09c0
00000230: 6935 789c b2f0 fe3f 7a56 13f9 abff 0640
00000240: ea3d 8df0 185d 0ec0 87ef 47f7 dcf3 0bc0
00000250: 8450 c8a0 2906 fd3f 4009 42c6 3a15 fcbf
00000260: 0a61 0392 de72 02c0 231d 3ae6 21d7 0640
00000270: ae50 7066 1c4a ea3f 6dce be46 bc13 0cc0
00000280: 0f25 fe8f 83bf 0640 088e 77be 3165 0ac0
00000290: de26 eaa4 2151 0440 6320 ae4b 69c1 febf
000002a0: 7921 7f32 a45d e03f 6a4b bea8 0f33 05c0
000002b0: 7d0b 9e15 778c 07c0 70c1 88df ad35 0340
000002c0: 56ee 5f57 8450 05c0 1e93 e11b 3861 fc3f
000002d0: fbc4 a4f2 e726 0740 e7c1 5282 a051 08c0
000002e0: 89ed ba14 51ff d3bf f7fb 7e7d b8cf 0840
000002f0: b38f b92b 7ea3 09c0 429b 7f8a eac9 06c0
00000300: f0a5 62f6 bc99 d83f 7be0 ce99 95f5 c63f
00000310: 4d3f 8e6a bc3a d3bf d803 782a 3dd2 b1bf
00000320: 6bc9 7d7a 32bf da3f 5e55 9749 b389 9d3f
00000330: 8a2e 9822 19c4 97bf 1fbf fef4 8997 dcbf
00000340: b40e 03d9 64f3 d73f 2b82 ab7e 8482 e23f
00000350: ca49 e1d7 d89d adbf c3e0 6bba 5cb5 d93f
00000360: bf6b 72c9 0f6f 00c0 b6db 116e af53 d63f
00000370: e1de 014b 494c c23f c864 8a49 acae d73f
00000380: 952f aa2c 2f4e d53f 9f43 02d2 abae e4bf
00000390: 05ef de18 e213 b2bf 2480 e1b7 2a28 df3f
000003a0: cf65 66f5 ab4b ac3f d9c4 b356 850c f2bf
000003b0: 293e 60bd fce7 ba3f 82de 3ea3 c0ed d0bf
000003c0: b0a1 3662 f348 c5bf d93a 66d4 f57a e3bf
000003d0: fc9c 4edf 188a f5bf a201 4fff 9c04 d13f
000003e0: 4a81 c65d 4e66 adbf f49f 777e 26e6 c63f
000003f0: e330 1bf1 5a21 d03f d160 99af 8749 d13f
00000400: 77b6 05d3 7a64 0640 6c95 34e6 adc9 07c0
00000410: 0cb2 f94c 0ed8 0340 71e8 7dee d2d3 09c0
00000420: bb8e 385d aa2b 0440 9e73 88ed 3c60 0840
00000430: 3e1c 6e95 8b44 e2bf 86b0 a287 7b3c f53f
00000440: e189 146e 8512 0cc0 3e64 ded7 e6d2 05c0
00000450: 92a6 1fd5 614b 0ac0 c1ea 64be 3adc 09c0
00000460: 1050 854e 0f11 01c0 f191 63cf 7d5f 0a40
00000470: d682 af1c 13b7 07c0 0e0c 72d0 540e 0640
00000480: 5ef7 7737 a6c2 0740 9b08 285a 13ef 09c0
00000490: 24e8 e73a 1674 0540 fa56 a29a 7d36 e23f
000004a0: 4164 e37a 667f 0ac0 1c3b e9e5 de4f 0240
000004b0: a428 887c d097 0840 04f5 8f56 cd85 08c0
000004c0: 2b81 474d adeb 0440 6482 ddc5 d25f 0440
000004d0: 9966 0f7e 3403 0740 7149 8b46 88a8 0ac0
000004e0: 8ae9 6edb 9ed2 04c0 6107 9d2f 0806 e93f
000004f0: 3898 73b2 dd14 0640 ca4e c5d4 b627 d13f
00000500: 0c2e bf0b 6567 ce3f aca3 6f9d 067c d8bf
00000510: fbcf 2528 419c d73f 31e2 bf0e ddd3 cfbf
00000520: 8e03 85f4 68eb eabf f2ab 9a8a b788 c4bf
00000530: 9386 f3d7 735c d23f 7984 40fb 8960 e13f
00000540: 7356 6037 2cbb cfbf 7ec2 a9f6 24e7 e73f
00000550: 8958 2e38 1ec7 d6bf 99f4 99d8 de32 dbbf
00000560: e144 d17d c65c e4bf 5803 c227 40ee cbbf
00000570: 7a77 c7c0 dead c7bf 12f8 f71f addf cabf
00000580: 03e9 9b1b 78d7 b4bf 76b8 9085 d57c d13f
00000590: cf92 8d47 e026 cf3f ce9d 3a7c 2948 e03f
000005a0: 4dad b8b4 da64 adbf e16a e88d fd46 e8bf
000005b0: 0764 d871 b85b dcbf 151a 1f1f 4fa5 c6bf
000005c0: 4bc0 ab18 9e07 bebf 2411 0a82 a52b b6bf
000005d0: 68f3 ab70 b5fd cf3f 6aff e5fb aa75 cbbf
000005e0: 3701 2b87 adaa ccbf 2769 e9ca 9066 9a3f
000005f0: d087 159a 7b78 e2bf f9b2 0711 eea6 d4bf
00000600: 3144 6bea cf35 a23f c700 da47 db9f bd3f
00000610: 43dc acfe 17bb f13f 3ec5 0366 8da2 f2bf
00000620: e064 4634 822c d03f 2c6b 3390 b480 c83f
00000630: 2415 4af3 1fb0 d0bf 14a3 a497 1393 bcbf
00000640: 3a07 1f1b 2200 d4bf 5665 d796 6680 d93f
00000650: d728 72f6 d63b 843f 1885 5477 4ba3 d8bf
00000660: 526b 8571 d539 debf 4f99 d92c 61b6 db3f
00000670: a539 2045 9afb c9bf 9a89 ff67 a905 eebf
00000680: bfad 5a36 2624 c23f ffff 3884 c418 d5bf
00000690: 3535 6744 1deb d1bf 794d f0f7 6170 e9bf
000006a0: 7267 3348 71cc e13f 4e61 1fba 2405 c33f
000006b0: c123 2c57 4a58 dfbf e9f6 8a80 62ac c73f
000006c0: 01dd f8bd 6965 d03f 24b1 a6aa 9a7f c5bf
000006d0: f18e dd74 1920 b8bf c0a1 c27c a343 e23f
000006e0: 05ad 4568 cf4c c43f c604 ef98 0dea c5bf
000006f0: 23e9 2bc6 007e b03f f26e 33e6 1a12 cebf
00000700: f696 1927 6ad8 0cc0 a733 203f d07e 0740
00000710: 756e 9ab0 5968 1240 9db1 393e d783 0fc0
00000720: bb45 b908 a1da 0ac0 acea 4cb2 7685 0fc0
00000730: 78d6 a5ab d2b7 0b40 e0ab 5b2b 56c0 f5bf
00000740: 2244 7587 d129 0a40 b149 d9fd 1ce4 10c0
00000750: 3a9c 7af8 1c6f 10c0 9218 f240 2474 ffbf
00000760: c0c0 6b6e 9dce 0a40 6dcf 289a b3ee e6bf
00000770: db62 a461 3d84 0440 934e 4de7 40ef 0440
00000780: 600c 313a aeb1 efbf 2aa9 2bf3 2ed5 0dc0
00000790: c2ac 42ae 9362 c53f 4910 499d 0e3b f0bf
000007a0: b52c db8a 8a24 0bc0 7045 fa78 087a 0b40
000007b0: 4c78 47d7 d8a4 0c40 2814 a7b3 182d f73f
000007c0: f8d6 cad0 d745 11c0 14e5 6a44 06de f43f
000007d0: a1e4 44dd 53d0 13c0 424b d038 11ac fa3f
000007e0: e9af e9c3 8878 0540 8af7 c968 fd02 1040
000007f0: 290b 9a85 4c02 0b40 bdb3 dd60 da27 08c0
-2.7324966105387296 -3.9848358068222027 2.419212687294053 -2.0272363678259806 2.382013396054687 2.9444234060212984 2.8780001213480224 -2.485328979147542
-2.9943683757863004 -1.1884629044117299 -2.311322476315396 -2.5770158950998687 3.1333046780946265 2.019196714859406 -2.9846734149757492 2.4146201730946784
-2.712083298246018 0.28511806630627895 -2.548986131608556 3.1732970246593286 -2.015025413761046 2.520626664188357 3.0023890802745106 -3.258047364461223
-3.18664242730975 -3.178736051780305 2.527717923300778 2.721954202970051 2.3602565571973377 -3.046706984557135 2.996737125139862 2.7253625824288794
-1.706217908571527 0.6010532262129107 -0.329552799245704 -0.05653732881031092 -0.03307381752739981 -0.5843193208108907 0.029942219760464003 0.34465915045991624
-0.18433459030114263 -0.23563715788790598 -0.3595452120950944 -0.07144934180991185 -1.1355270665099901 0.7612009125503602 -0.028892534785437206 -0.2902233306462067
0.4151595208329614 -0.3389206673183828 0.0029049638456514404 -0.1102246475173493 0.33013438488724356 -0.11099879608073378 0.5787785923588051 -0.1692586017638506
-0.15309692571849148 -0.06611787525915215 -0.2637132846630522 0.6875668549302605 -0.08016107259986627 0.04115878253775104 0.17497339303137183 0.41788782738161007
-0.8634611460020316 3.001281389456942 3.0054893525862565 -3.595187640442069 -1.0140219745240957 -3.2052073493726727 1.9337640869228727 2.8748397311235836
-3.7954577248672097 -3.4940738028362293 1.8140045433583802 -1.7551830048037829 -2.306088581779595 2.8550451265797547 0.8215467453724352 -3.509636452386806
2.84351265425051 -3.299411285422824 2.5396149524648157 -1.9222195583588693 0.5114308344137007 -2.649932211215334 -2.9435865105492085 2.401210543023062
-2.6643149210120027 1.7737351502521004 2.8939970928701064 -3.039856928015286 -0.31245829605514835 3.10142610591674 -3.2048304954532454 -2.8485918827240377
0.3843834310633545 0.17936964044725187 -0.30045996099305655 -0.06961424147449635 0.41791974985166885 0.028845597616812817 -0.02320899270675495 -0.44674920010855773
0.37423058693478173 0.57843231907106 -0.057844902374785415 0.401694471408984 -2.054229329876278 0.3488577437305439 0.1429530731436364 0.3700361936731267
0.33289698945804364 -0.6463221647010079 -0.07061589343259918 0.48682659108271964 0.05526482935529097 -1.12805684917503 0.10510234473644488 -0.2645112604327339
-0.16628877921654128 -0.6087597988533516 -1.3462151263173032 0.2659065716980199 -0.05742115874022831 0.1788986318126714 0.2520358423760298 0.27011291645386587
2.799062393771972 -2.9734762177274003 2.48049602639208 -3.228429663865477 2.5213210375676147 3.0469912106768353 -0.5708673399502755 1.3272662447225527
-3.5090435600297814 -2.727979361032822 -3.2868076944622056 -3.232533919768088 -2.1333299765046903 3.296626682497156 -2.964391922098325 2.7569977078251275
2.970043595646458 -3.2417361300914087 2.6816830255529727 0.5691516895483055 -3.3122071838993468 2.2889993631173535 3.0741281251003603 -3.0653330576593607
2.615076640839239 2.5467887361740384 2.876564965100283 -3.332291175008486 -2.6028420584891068 0.7819863252591227 2.7601884786154436 0.2680489614333338
0.23753035615514795 -0.3825699365102604 0.3689120189731054 -0.2486530611056579 -0.8412365699551729 -0.16042227046759155 0.2868928536318915 0.5430345446840327
-0.24789955810472328 0.7469658677710667 -0.3559032009737924 -0.42497988846282336 -0.6363251168606007 -0.21820833150197916 -0.18499359524770026 -0.20995105801552022
-0.08141279863403743 0.27324426692474135 0.24337390416908142 0.5088088442179755 -0.0574100823981448 -0.7586658260000513 -0.4430981742639805 -0.1769198324165734
-0.11730373480145422 -0.08660349297321496 0.24993007661387456 -0.21452843951919515 -0.22395867443084125 0.02578188169932463 -0.5772073754744671 -0.32268859541981915
0.03556680428085491 0.11572046760739162 1.108177180123463 -1.1646856293630914 0.2527165899751491 0.19142777482087447 -0.26074980505684864 -0.11161920978760193
-0.312508131490279 0.39846195917706007 0.009879760166104408 -0.3849667229970506 -0.47227989278842586 0.4330065668094862 -0.2029908025292119 -0.9381911307539668
0.14172818807615603 -0.3296366969334485 -0.27997523956294695 -0.7949685900261293 0.5562063608333416 0.14859446609512833 -0.48976381791049667 0.1849482658052957
0.25618976165738166 -0.16795667011809556 -0.09423979857598021 0.5707566677784186 0.15859406081595054 -0.17120523421730222 0.06442265356227898 -0.23492752304343117
-3.6056712202724794 2.9369206363393974 4.6019046396501055 -3.9393753873211623 -3.3567524606266637 -3.9401678018305883 3.464757290838687 -1.359457177512688
3.2704191763555324 -4.2227668441650374 -4.10850895164827 -1.9658548867169299 3.35088621393524 -0.716638375370605 2.5645702007571862 2.6168230123965457
-0.9904395233683196 -3.729093456048891 0.16707082756815878 -1.014418234249222 -3.392842373670272 3.434586472642586 3.580491716259564 1.4485098855668728
-4.318206083660463 1.3042051956711633 -4.953444917039776 1.667008611610712 2.68385460907847 4.002919804884991 3.376122516406572 -3.019459492460071

conv1.att_dst f8 [1, 10, 32]
00000000: e807 c7bf 53c2 e7bf 885b 4cd2 f439 eabf
00000010: d083 a9d5 0337 e0bf 05c8 1984 7465 f83f
00000020: ea1d fd39 2096 e5bf 4859 bb39 6528 a4bf
00000030: 3113 b6df 0ffd dc3f 2ceb 1fc9 5b11 f13f
00000040: 82fb 036c 7af1 e83f c3a1 1ec3 ff89 01c0
00000050: 4af4 136e e349 f13f 6a60 3a58 cf64 d13f
00000060: 8c33 6bcf 12e6 cf3f 55cb 4442 a0b6 d83f
00000070: 1c01 2d58 d3bc e2bf c9eb d869 23e6 e1bf
00000080: 10c7 e13e a78d f63f 196f 05a6 7692 f33f
00000090: eaa9 1afd 8803 e53f 72bf 1ffc b108 f03f
000000a0: 3c0e 05c2 b7cb f1bf bbd6 018c f49b e03f
000000b0: 7408 e4b3 a106 aebf bdfc 46ca 0972 dd3f
000000c0: abb2 f129 a59b 9b3f ea51 cef1 7a06 c33f
000000d0: 199c 1338 a71d e1bf 1284 707c a60f f53f
000000e0: 505c 0357 e915 d9bf 22d1 fe2e ac59 ddbf
000000f0: 5574 5671 c589 f3bf 0aee 9768 e501 f0bf
00000100: 9d5c 9bd8 432b d4bf 2f69 60ac 0f1a bbbf
00000110: 0bcb f3e0 f1ec c73f fc26 6d30 cc6a a8bf
00000120: 3dfc abe6 cba1 d13f b845 4009 12aa aa3f
00000130: 42ce f416 0e79 63bf 98dd 43eb 2ff6 c43f
00000140: 9559 a7f4 a361 d9bf f0db 619b ffb3 d3bf
00000150: e36a d66c e119 983f 224c f7bb f010 cdbf
00000160: 03e2 7910 bab4 d6bf 61f3 ebbb adf1 a93f
00000170: f7cc b036 3796 d93f 9efd 1d76 ebc9 b33f
00000180: 7eb5 0263 e126 c83f 8e48 dd7c 6e45 d1bf
00000190: ca33 92e5 f6c3 d63f c135 239f e7ca cf3f
000001a0: 9cdd ffaa c2f2 d73f f190 dff2 fe06 d1bf
000001b0: 5186 00d6 26bc cfbf ae03 5d20 b1f0 a43f
000001c0: aca5 f698 ce86 c3bf ecf6 e37b e997 b6bf
000001d0: 429d c002 18c5 d13f d82a 10af e047 b1bf
000001e0: fcf3 4419 905a cabf 6652 b8e6 9884 d03f
000001f0: db55 483e 4a06 b0bf 9d4e 8bf2 dc90 d13f
00000200: 3d76 805c 775f f1bf 1367 b56e 5647 ddbf
00000210: f367 c5f8 f6c4 e3bf 2273 672c 6123 dd3f
00000220: 89e9 5ffe 65c5 fbbf 0d4a bb85 6bcf d43f
00000230: 635a 3648 15cf e63f b5ac 91c9 3f13 cbbf
00000240: 9efc fa21 645d eabf 1333 e480 d435 e33f
00000250: 0227 9698 81a0 f0bf 1d6b 8b2d 2dac f23f
00000260: 2878 c254 fd1c 813f 810a c564 3e22 e2bf
00000270: ecbd 455a 7e92 f0bf 49f0 5013 7d5a d53f
00000280: 4de6 b39f d585 ecbf ac8a 7f3a 843f f03f
00000290: 2488 162d 3a19 cbbf 997c 7105 9123 f03f
000002a0: ba43 13bd a619 f7bf cf91 fb6f d040 efbf
000002b0: caad dddc bcc6 df3f f843 a9f1 20d3 f53f
000002c0: 7473 e80c 6f68 f23f 12c6 c0be 362c eb3f
000002d0: b1f4 7d5c c7f3 edbf df9e 1fec 7420 e23f
000002e0: 8b41 5287 6baf f7bf 0c78 bc24 52e5 f2bf
000002f0: e522 0791 b5ca eb3f d835 53c6 4a33 e93f
00000300: 8f8e 5eef 5a6f d03f 2e12 aef1 25b3 d43f
00000310: 5450 bd52 6945 d23f 4b96 b5a2 345c b83f
00000320: f393 9d3e 699b c8bf 1391 01e1 b167 cfbf
00000330: 8a69 e70b aa99 93bf c715 2420 9c9d dbbf
00000340: ad64 03e8 68a0 bc3f 6f29 0885 ca1a b43f
00000350: 5f38 4c8b 0dad cabf ee1b e4bc 2031 d73f
00000360: 4f0a 2dfd 22d1 ca3f 4bd1 fdd7 7ccc c7bf
00000370: c3b1 9428 3279 c0bf f4fc bc8c 1404 9ebf
00000380: b842 7637 558a af3f be3e 4d84 c05e d8bf
00000390: dc47 b95a a757 d2bf 0e69 745b 37f9 d13f
000003a0: 4d03 e2d3 39e4 d0bf 14fe 1305 2335 d93f
000003b0: fccf 058f b20f c73f 8c27 fe35 2614 d3bf
000003c0: b8ac 119d 55a4 cb3f 8f03 949c 42d4 c53f
000003d0: b556 91d0 aa7a c93f 4453 4119 1d61 a43f
000003e0: 9036 56c5 094b b03f 8a67 c642 c3ab d7bf
000003f0: 94a4 e944 0f01 be3f 4153 57f1 eaf5 a43f
00000400: 2608 9ec1 6a8b f2bf 3f6b cac6 f5a5 eb3f
00000410: ae11 59e7 3b80 e1bf 7f37 e75c 9752 f33f
00000420: 7912 745b db5a e13f 1542 1a94 646a e7bf
00000430: 4277 c749 152d fdbf f76a d98b 7f9a f13f
00000440: c134 9078 bf7e f03f 4470 e7b5 0970 d4bf
00000450: 0516 0000 130b ec3f 498e d3f7 a98a e73f
00000460: f3f6 678b c4b1 e7bf fbd3 7ff7 96fd e9bf
00000470: 3ccf 1953 1ce4 f03f 54d4 7725 355e e4bf
00000480: 8dfd bfbd 93ed e1bf 6215 60db 14eb ed3f
00000490: e530 e824 9fd9 debf 8540 7d61 b2e2 febf
000004a0: b906 ce32 5a8a ee3f b032 9f91 5828 d23f
000004b0: 72b5 7b4a b356 e8bf 7854 e055 b969 f23f
000004c0: d235 725e 4881 e6bf aa3c 7a78 d2fc e3bf
000004d0: 5f89 f465 2d73 ebbf 6ab2 bfb8 c2eb e8bf
000004e0: 272b d057 1fb1 f03f 48cd e1ea c3b5 ea3f
000004f0: d838 7f03 9d6b e3bf 7a2b da5c ecc3 f73f
00000500: 20f5 2f98 e74a bc3f 7a5a e9c5 ba5c c73f
00000510: 11f6 5e70 a581 e23f e6c8 c663 cf9c ccbf
00000520: 0087 2ca6 615a e23f 332b ff12 9fc9 e43f
00000530: 5f9c a549 a427 e5bf d4ca 1a61 6807 e0bf
00000540: b32b f6b7 b982 d3bf 888b 7fba b5db f2bf
00000550: c9cf afc5 bfcb c83f c7b3 0e0b e18e ca3f
00000560: 46ba 9559 70d5 8bbf 4a80 fd9e 82b5 dc3f
00000570: 2f84 b3ac d3cb d63f 6da4 71c0 75c6 d53f
00000580: 3af5 3917 e67a bc3f 3701 a9dd 1e58 e4bf
00000590: bbc8 9b8d 5eda bebf e052 849e 396d e1bf
000005a0: aae1 9764 09a3 af3f 428d 367c af3b f23f
000005b0: 3518 fad9 8e89 d3bf f5ed 696b 4a08 c83f
000005c0: 6ef0 27de 01b2 d33f 1b39 dee6 8ba0 ea3f
000005d0: 10d5 1457 e7a2 d3bf 4d20 b913 ee26 cc3f
000005e0: ce4f 873c 3708 e13f 387b ba04 7251 d63f
000005f0: f15b 3357 042f bfbf 0b30 a7a3 d674 d23f
00000600: 8b79 e02b 93dc d83f c778 5932 8032 db3f
00000610: aad6 50e5 87ba e8bf d652 6199 4917 b83f
00000620: ecdc f3ed d689 d33f 8e0d 69d4 2734 e2bf
00000630: 0e4a 4aef ee39 d73f b45a f254 1de1 d73f
00000640: 6087 ac26 c639 e0bf 075e 9c68 8db5 923f
00000650: e2ae 993d c696 d8bf 42fa 04dd f5b1 d03f
00000660: 24a1 1ce7 6e60 d83f f1e9 16c4 d3f2 e2bf
00000670: 0238 4510 64d7 c13f bbf0 9a87 3425 bcbf
00000680: 5c3a 968f 75b7 da3f 2650 189b 7c59 b2bf
00000690: caeb 5c09 4a9c d5bf cef9 71a6 9029 d03f
000006a0: 0db1 accf abe4 dcbf 8c71 1ae1 90e6 9d3f
000006b0: a203 1ad1 d3cc df3f 9c3c 404c ff57 cd3f
000006c0: 6d34 1669 0290 e2bf a62b b465 de0d cf3f
000006d0: d989 0ab9 42ad e1bf 5ca0 5b6c 85f7 e23f
000006e0: 0662 06d1 dad2 d13f 888d 1c17 9e5a bbbf
000006f0: 51fe d527 a28a ca3f 2f08 1473 c11b d53f
00000700: 7607 2f59 e42b c73f a42e d5f8 5a85 db3f
00000710: eca9 afb6 b445 ec3f 3c30 69e4 a1e1 e4bf
00000720: ac08 8bb4 cb0e d2bf f122 4431 3ccd dfbf
00000730: 1e05 521d 0576 ed3f 7b5a 761b d747 f33f
00000740: b984 6c86 2ad2 c63f 99b3 2f32 5f07 e6bf
00000750: daf9 2ad7 6aef c1bf 0ee3 0690 1957 efbf
00000760: fbdd 3b19 e598 e23f 6f7f 6430 ead9 eb3f
00000770: ced7 c371 a085 0340 3225 7611 079b fc3f
00000780: 96dd 0ad1 0bf7 ecbf 5552 94e4 ab24 b3bf
00000790: 12ef d4e5 0dc0 ff3f 7aab 0420 f6e9 f53f
000007a0: 5569 35aa de52 f4bf ace0 859c 3ada e83f
000007b0: 0ed9 144f e708 f03f 32de 609c 5ff0 0040
000007c0: c631 0a83 754d 9cbf 04b4 a514 7316 ffbf
000007d0: ed97 7e40 22fc f4bf a57a dc6e ec65 e5bf
000007e0: 1335 1fd0 4ed4 ff3f 51f8 d906 c9b6 c03f
000007f0: 57ee 0fe4 6b57 d1bf 985d 54e6 4b58 f0bf
-0.7424715753224946 -0.8195747477901572 -0.5067156956757746 1.5247693214591902 -0.6745759136765035 -0.03937069253668085 0.45294567915725553 1.0667379242356203
0.779477320640453 -2.1923823589060887 1.0805391597671297 0.2717779504396335 0.24920878532284652 0.38614660712771826 -0.5855499956306036 -0.559343058331586
1.4095833259893347 1.2232576832966002 0.6566815322342425 1.002122864589151 -1.112235792054789 0.5190375074878014 -0.05864434548313194 0.46008534196512213
0.026960926709238702 0.1486352616017393 -0.534869775318728 1.3163208828848423 -0.39196237084747043 -0.4585981806697125 -1.2211355616812132 -1.0004629216845182
-0.31514068749442875 -0.10586641271985252 0.18691848262786723 -0.04768980113165175 0.2755002739576787 0.05207878458908105 -0.002377059477703531 0.1637630366092082
-0.39658450023616726 -0.3078612344174294 0.02353622652808952 -0.22707947900798425 -0.35478068932528134 0.05067198676076746 0.3997934373939666 0.07729980119437704
0.18868653616429393 -0.2698627681139748 0.35571072024395944 0.24837966223132749 0.37419192027251724 -0.26605199544998387 -0.2479294342929728 0.04089883346615096
-0.1525514838115617 -0.08825549387617188 0.2776546503905203 -0.06750301622393395 -0.2058887599359024 0.25809309512377465 -0.06259597797937692 0.2744667404742616
-1.085807191214726 -0.4574791031969749 -0.617793546563233 0.4552843984254641 -1.7356929718503997 0.32515991267897065 0.7127787027737437 -0.21152493803251607
-0.8239002860717795 0.6003210561189881 -1.0391860924159464 1.1670352725111066 0.008356074475440137 -0.5666801422269857 -1.035765030504872 0.3336479843744696
-0.891337215346718 1.0155069623075788 -0.21170737458766198 1.0086832249287794 -1.443762529921726 -0.9766618907129273 0.4965049893278005 1.3640450897112242
1.1504965309352118 0.8491471982617347 -0.9360081488117854 0.5664620029246769 -1.4803271566380285 -1.18098654127198 0.8684947807861049 0.7875112412963814
0.25679658294596036 0.3234343395381839 0.2854865367892263 0.09515694591899508 -0.19224277074241022 -0.24535201536776494 -0.019140870071944906 -0.43149474276318894
0.11182265915285212 0.0785337996277684 -0.20840615560195183 0.36237352796928135 0.20950734483820319 -0.1859279684682725 -0.12869860631452754 -0.029312440004329823
0.06160227109933686 -0.38078320427028334 -0.28659995898953894 0.28083595210195333 -0.26392980281530215 0.3938682126608637 0.1801665495255519 -0.2981048133157109
0.21595258874308398 0.1705401672880069 0.19905600723239095 0.039803418476970026 0.06364499156753767 -0.3698585655307559 0.11720366890371486 0.04093870349939844
-1.1590373576332325 0.8640087969427909 -0.5469035643114262 1.2076638821631318 0.5423409258078912 -0.7317374127033555 -1.8235066301344465 1.100219293867381
1.030944319677744 -0.3193382526785664 0.8763518333441317 0.7356767502173592 -0.7404501650596259 -0.8122057756396538 1.055691074955532 -0.636499951534129
-0.5602511125616033 0.9349464687990514 -0.48203257183264575 -1.9303458984541362 0.9543887131005341 0.2837125227058932 -0.7605835394621592 1.150811515287641
-0.7032815785075235 -0.6246120789600316 -0.8578097335160172 -0.7787793739676776 1.0432427816583159 0.8346881473102394 -0.6068863933849356 1.4853328349151682
0.11051795449744306 0.18251738227509745 0.5783259577507939 -0.22353546497249183 0.5735328908524195 0.649611985304864 -0.6610890806595185 -0.5009042641234722
-0.30485384907722873 -1.1786401066862897 0.19371792938875235 0.20748532333291633 -0.01359069608107889 0.44857850576773173 0.3561906038794999 0.34023803513861745
0.11125028674174056 -0.6357569054889954 -0.12051955182303946 -0.544583139041233 0.06179074624009513 1.139571652610201 -0.3052708748513198 0.18775301213086917
0.30773970312998855 0.8320979603902602 -0.30681785110512383 0.2199380489639701 0.5322529012869326 0.348721031777973 -0.12181117180749347 0.2883812521147326
0.3884628227696331 0.4249573222822502 -0.7727698782752743 0.09410533899910986 0.30528805959279626 -0.5688666485443024 0.3629109703844343 0.37311490340782005
-0.5070524936056522 0.018270692357957 -0.38420253768593515 0.26086184104852717 0.38088581628336926 -0.5921419935105502 0.1393857078023189 -0.10994270620989514
0.4174474622931592 -0.07167795931337703 -0.3376641360698015 0.25253692869582955 -0.4514569786140477 0.029199851741041935 0.4968766729362476 0.22924796317281426
-0.5800792744136182 0.24261074033742352 -0.5523999799809715 0.592714988361887 0.2784945527323831 -0.10685146393057299 0.2073557562361992 0.32981907117948855
0.18102697710679266 0.43001436519691993 0.8835090225305158 -0.6525430165434112 -0.28215305930292334 -0.49690155802868136 0.9206567356742743 1.2050391266581346
0.17828876079241754 -0.6883998851968612 -0.140118937551917 -0.9793823063874656 0.5811639302109478 0.8703509278457043 2.4402474296466385 1.7878485376443902
-0.9051570017681339 -0.07477831202079106 1.9843882539561872 1.3696194887840805 -1.2702318810248319 0.776639276226907 1.0021737183683999 2.1173698632299187
-0.02763923275283433 -1.9429808432134914 -1.3115561026875142 -0.6686918416269988 1.989332974411188 0.13057816347640253 -0.2709607817812176 -1.0215567586181802

conv1.bias f8 [320]
00000000: de0f e1a7 f3c6 b03f 3a9d 52f3 083f b03f
00000010: b03f aeff f4b7 b5bf d0db 329e be05 a93f
00000020: 42b7 a918 c8c6 bdbf 804d 0b9b af83 acbf
00000030: ef41 775c e47a c6bf 8e04 b4aa 430c 933f
00000040: 5b4d 93a2 b04c a83f 5c21 0a0c cbad f43f
00000050: 0958 e75b c7fd 913f 8bf1 407e 70a7 ad3f
00000060: 084b d72f 7085 bebf b2c8 2b1e 38d2 adbf
00000070: 45bd dc28 c563 b63f 58c8 b68d 9b25 88bf
00000080: 9366 fcb0 0c38 843f 5d46 b2ac 299f b33f
00000090: 4a62 a6c4 00e2 a43f 1453 17ae 6810 b53f
000000a0: 1382 9629 c02a c23f 11f0 883f af3c c2bf
000000b0: 9207 d23f e63b c0bf fbeb bc66 78f9 b33f
000000c0: 1ef7 f206 1b09 b33f fbbb ebdb b17d b43f
000000d0: ab0e b15c 8d34 b1bf 4539 13f2 5674 b63f
000000e0: 5951 5836 f87c 87bf 3b62 b6ab b694 b43f
000000f0: d9f2 7656 7b98 8bbf a828 9e90 980a bcbf
00000100: 3264 13c2 446b b4bf e5ab de65 0c0c b5bf
00000110: e816 fcd0 4a80 abbf e053 d1d1 168d ba3f
00000120: e4b5 dde5 44a0 b53f dc7c 6843 8611 acbf
00000130: 1b61 0ceb 186c ab3f f8a7 48c5 c2d6 b3bf
00000140: 2a18 138e f5a6 b3bf 74c9 20a8 bc51 db3f
00000150: d50c af80 99e9 8e3f 0350 0006 7da3 b33f
00000160: e5ba cd12 d3ea c1bf 1010 f26c 2adf aebf
00000170: f946 7ef9 fd0f b0bf 5ef4 42c1 dec0 b9bf
00000180: ee5e 4cb6 4677 b0bf a81f cc6f cbc1 d43f
00000190: 1aa6 6bc5 13c8 bfbf 14c4 77c3 8d50 d13f
000001a0: 7691 0ef6 4e96 b43f b927 7ef2 60a6 b0bf
000001b0: ec50 e694 7956 ac3f ac74 a65b 15a1 c33f
000001c0: 5677 34d4 2a48 a93f 8e25 6caa f91d b3bf
000001d0: a4bc cc5d 163e c23f 2f8a 7bb5 7984 a9bf
000001e0: 73e6 bf6d 4b6b b1bf f58e 1480 b3ab c93f
000001f0: 8a6e bb0c 004c b13f 646f cc6b 01b9 aa3f
00000200: 0f5c e229 9a7f a93f 1ca4 15d0 d4f1 acbf
00000210: add0 cc20 98bd bf3f ff85 063b 948b aa3f
00000220: a1af 1b92 3924 bf3f e217 9719 af88 bd3f
00000230: 2f23 7cad a4f8 babf 2466 a5a3 f18b b9bf
00000240: 58a9 8ec2 6e14 b53f edbf 71f9 b704 bb3f
00000250: 71cd ecde 4a04 973f 4794 2c2f 5040 ab3f
00000260: c5e1 c3a2 954f bd3f 7115 fee2 50ea adbf
00000270: f294 88ab 44b0 c83f 6fec 7a9c f8da bb3f
00000280: f0ad 8a3c 601a cabf f93e f208 c949 b03f
00000290: b321 d410 e91b adbf cdd9 d906 d486 9e3f
000002a0: 50c6 9646 5a6b e23f ee32 37a6 197f bd3f
000002b0: 40ac 91b0 193d b53f 4d07 2866 89e3 a63f
000002c0: 80ee 2f74 5f35 bdbf 7fb7 b4ec 3246 b9bf
000002d0: 8373 c9cd 88b2 babf 9a8f d4a9 ad33 ba3f
000002e0: a66a 1d7d d274 c43f 5498 536e 8381 aa3f
000002f0: 25e7 f051 54f9 b63f 2b2a 2e08 36cd 9f3f
00000300: 2df0 87ae 598c babf 8c0c 1136 0e46 afbf
00000310: 497f 2f27 a4f3 d23f 9ba7 37c7 0453 c83f
00000320: 2eb8 5b83 6602 b1bf f43e 0e93 8c92 b33f
00000330: 3f6c 046c 37de b3bf a986 c0ae e127 b0bf
00000340: c58b 5d06 ff59 b73f 19f6 c380 57e8 b33f
00000350: 0125 b896 53d6 e33f 272d 896d 03ba b2bf
00000360: 99eb 1453 9f42 bdbf 5eb0 642b e284 b1bf
00000370: 0dc2 ccf1 8a07 c8bf c518 5f90 31f0 b0bf
00000380: 8f94 946a f89b b73f f644 c667 aee1 b3bf
00000390: 2db2 9e1d c486 b63f 04c9 0cb9 b95a b63f
000003a0: 5242 7199 300e b4bf f1b7 43f2 763b ad3f
000003b0: 7ffc 2fe3 2b7f b2bf c9d9 ae83 6634 d73f
000003c0: 182f a935 2f34 c73f 5abd dcbc 47db c3bf
000003d0: 6765 7f17 efbc b4bf 7320 1663 f710 adbf
000003e0: 7710 289e 7934 b2bf 829f bc61 60f3 b9bf
000003f0: c1f3 179b 5868 b8bf 53de 7c3b e2b4 b33f
00000400: c48a 425d 91be 873f 3991 d026 6554 b93f
00000410: ebde bdb3 53c1 9abf 3075 3472 5aaf a73f
00000420: b09a 998e 369e b3bf c8d2 a020 cd1b 93bf
00000430: 8e67 2b76 2a18 d73f ccfa b060 6b29 b43f
00000440: 9988 30de cd51 b13f fca2 45f1 fed2 be3f
00000450: c4d3 b461 8b11 b33f de68 e125 55f4 b53f
00000460: 7551 0f82 8275 c03f 4f62 0559 04df 933f
00000470: f167 0a86 25c6 9d3f 13c9 6078 d210 b2bf
00000480: 68bf 3afd aa75 82bf 2e70 6473 16f7 b33f
00000490: 63fa 979c 695f 86bf f7ce bc34 e4fe f13f
000004a0: f47d 978d bb7a b23f 592c 2d5a 14bb b1bf
000004b0: b30e 45ed 7628 a3bf 702d 7980 8a4c ad3f
000004c0: 9d70 0cab 5f0a 9ebf 94be 2466 def0 b1bf
000004d0: 398c 41da 8b43 acbf fa93 b32f 2835 70bf
000004e0: af15 582f b88d a53f 790c e78d a3d9 c3bf
000004f0: a15a 1d18 ad41 aebf 59bd 1b88 c61c b43f
00000500: 0d3f ba51 4584 a8bf ce86 c651 65ed b4bf
00000510: f218 e19b 6103 b0bf bfa2 88c8 70c4 b4bf
00000520: a50b b14c e0fa bfbf b968 3790 32a4 babf
00000530: d088 9145 2784 d73f 8343 88f0 cde1 b33f
00000540: 36f3 ef08 f7f1 b3bf 2632 62b8 3f03 a3bf
00000550: e6e4 0d8b e891 b93f c97c 94c0 060c b2bf
00000560: 2dae cde5 c421 b7bf 2d3a 60db f982 b33f
00000570: af9f 0481 affb b23f cc8e c531 b131 b1bf
00000580: 78b9 e3a3 34b7 b3bf 6e7a 2f1b 8363 b5bf
00000590: 8c8b 7e69 c052 cf3f aa0c ad50 9549 b7bf
000005a0: 5bd4 ffc8 2c69 b53f 5b5c 7f0c cebd afbf
000005b0: ee43 08db 571a b1bf 41a5 5688 4952 b5bf
000005c0: 3add 757e eb3a b3bf 7fec 7f45 d145 b33f
000005d0: 5515 5d52 3350 de3f b5ea cc97 5e19 b33f
000005e0: 6496 3a4c 15e6 b33f 535d 1d1b 4296 b33f
000005f0: ed0d 3296 868c b5bf caea 460d 6922 b33f
00000600: 4406 17bc 7d05 b33f 1431 25d9 a9b9 b23f
00000610: fa9d 46cf e44c abbf 0172 0aff 4567 b2bf
00000620: 56f0 9501 2c9f b63f fae0 aeb2 8a13 b8bf
00000630: 2c3e d1b4 7b79 b33f 26bf 134a 823d ba3f
00000640: 09c9 08d1 c044 b7bf 1e2b 7e0c 4fd0 b33f
00000650: 687b a30d 2e3b d93f 9dbb f2c2 e023 b1bf
00000660: 828f 82cd 52a2 b73f 3501 1cb9 1448 a2bf
00000670: d091 e706 5919 afbf 3753 7c8e e44d b0bf
00000680: 5f3b a3a4 83cb b6bf e7b3 5f36 316e b33f
00000690: 1946 e792 deab c03f f189 a2a1 ce23 b2bf
000006a0: 5ed6 a9bb ae22 e53f c290 0a6d a1d4 d33f
000006b0: ac4d 706f f4d2 aebf 5904 3023 e08c a03f
000006c0: 512f 20c5 f5df cd3f 70d5 f68e 2867 b43f
000006d0: 4781 e0ae 6e3b b5bf 4843 8393 649d b1bf
000006e0: 478a 4446 ab60 b3bf f31c 1b6f 5649 b4bf
000006f0: e20a 58e0 b3c3 b43f aa92 5e80 2c85 b43f
00000700: 995b fc94 84a0 a43f 9cef 3549 f4f7 a9bf
00000710: 4a1e edaa 9def a33f 1e4a 49b5 9243 b83f
00000720: 1c36 5c29 00f6 ad3f 3884 3192 1489 b23f
00000730: 0151 6059 86bd b5bf 307e 06b0 5f27 b53f
00000740: 154e 1711 0449 adbf 3df7 a4ca 83b7 ba3f
00000750: fe8b f181 00b5 b03f bd5b 5782 e8b0 c03f
00000760: 3453 6377 3630 b3bf c17c a079 a211 b43f
00000770: ae8e 872a b81f b23f 7164 095a fe24 b33f
00000780: dd7e 50e9 37d7 b93f c7b9 c2b2 9f69 ab3f
00000790: 7b04 9877 60f2 b63f dc2d c191 2ea1 b63f
000007a0: eaee dbb9 c60d c23f 8567 6f7e f7d2 b1bf
000007b0: acb8 8d8c e052 b2bf 8773 e799 d9eb b23f
000007c0: 4438 c578 4d5b ae3f 9f9f 301c 32f2 e33f
000007d0: 50e5 0626 990f a13f f275 14b2 152b bb3f
000007e0: 1ef7 2cb4 9041 b23f 550f 23e9 20db a8bf
000007f0: 48fc f0d7 f7c5 b33f 0b2e 4031 ba56 bd3f
0.06553576325046559 0.06346183720107926 -0.08483821146205517 0.048871952830658594 -0.11631441690562119 -0.05569218413952637 -0.17562536730703424 0.01860147218122115
0.04746009811938264 1.2924299688621295 0.017569651588779354 0.05791808644468962 -0.11922360580437552 -0.05824447029398651 0.08745987174619525 -0.011790480863826655
0.009872531081373459 0.07664738146038404 0.040786766057128235 0.08228163004180217 0.14192964583072917 -0.14247694589892082 -0.12682798496467435 0.07802536495448457
0.07435769004493095 0.0800429498592478 -0.06720813286761522 0.08771270189320031 -0.011468829306104199 0.0803941888065162 -0.013474429680053234 -0.10953668146808815
-0.07976178873231346 -0.08221509444290083 -0.05371316720088065 0.10371534941198446 0.08447676288570666 -0.05482120106557328 0.053559092228342396 -0.07749574009417859
-0.07676634520166262 0.42686382693059177 0.015093993415467835 0.07671338459505254 -0.13997877519746918 -0.06029636936094118 -0.06274401990074442 -0.10059921472834918
-0.06432001066820778 0.32432828824721094 -0.12414668626629358 0.2705416115632613 0.08041852481125553 -0.06503873749002666 0.05534725134489968 0.15335337615116396
0.049378717807697356 -0.07467613611892984 0.14251975612703405 -0.04983883228648655 -0.06804343633111802 0.20055240396424492 0.06756592093318595 0.0521927303400094
0.04980165253908108 -0.05653252639860559 0.12398672867567724 0.051846153455027626 0.12164649788945649 0.11536688208352033 -0.10535649524184686 -0.09979162450090279
0.08234302759107004 0.10554075088452892 0.022477311950934224 0.05322504592758342 0.11449561332472687 -0.05842831393151016 0.19287927985821046 0.10880998440090804
-0.20392992931498055 0.06362587421812894 -0.05685356455257153 0.029811203878546345 0.5756045702639287 0.11522064502714688 0.08296356735961385 0.04470471736932655
-0.1140956553135144 -0.09872740057900663 -0.10428671859831522 0.10235104938743547 0.15981513127447505 0.05176935884246406 0.08974196434510569 0.031056255578315522
-0.10370407591830207 -0.0610813561438813 0.2961206801100969 0.1900335285893647 -0.06644287783612476 0.07645491209245475 -0.07760950457706971 -0.06310854450614535
0.09121698289304365 0.07776400464714363 0.6199129050957312 -0.07315083908286067 -0.11429782656061462 -0.06843389090926297 -0.1877301865256559 -0.06616506361669668
0.09222366907177303 -0.07766237290913466 0.08799386714117281 0.08732186096020561 -0.07834151979592122 0.0570943041546882 -0.07225298210686225 0.36257326945942886
0.18128004188690094 -0.1551294014147782 -0.0810079033248222 -0.056770068021308705 -0.0711132060169478 -0.10136988054421006 -0.09534219538177437 0.07697881653154441
0.011593948038642117 0.0989440173876276 -0.026128108830987633 0.04625971454718536 -0.07663289052434652 -0.018660740963428762 0.36084996738429076 0.07875701056125733
0.06765448259878538 0.12040704145841724 0.0744864572087201 0.0857594697457986 0.12858611441209758 0.019405429776585156 0.02907618170375054 -0.07056918562810592
-0.009013496258688483 0.07798900906749459 -0.010924172488555322 1.1247293529567608 0.07218525130109993 -0.06926085664342575 -0.0374180950771267 0.05722458666113084
-0.029336447539308187 -0.07008161538828467 -0.05520283736475346 -0.003956944444529315 0.042096858767801996 -0.15507931164583846 -0.05909481925362071 0.07856407950361212
-0.04788414595270583 -0.08174737211677582 -0.06255159431120541 -0.08112244506686304 -0.12492181656220554 -0.10406795521649571 0.36744100374029376 0.07766425249452706
-0.07791084259220046 -0.03713416219497771 0.0998826350677465 -0.07049600793515078 -0.09035902605472108 0.0762172852121032 0.07415291690688151 -0.06716449227456706
-0.07701424599847495 -0.08354968465526166 0.24471287871446312 -0.0909665414774731 0.08363609225473694 -0.06199497129971895 -0.06680821511714871 -0.08328685358596478
-0.07511779630100515 0.075284079997731 0.4736450485546205 0.07460585790696934 0.07772954093032919 0.07651150857906446 -0.08417550246127066 0.07474381040712355
0.07430253831901107 0.07314549971960488 -0.05332102804396395 -0.0718883273752411 0.08836627043450682 -0.09404818403607243 0.076072436947691 0.10250105198406043
-0.09089284041764158 0.0773972898006545 0.3942370541753264 -0.06695370444752631 0.09232060925802268 -0.03570618400226736 -0.06074026307377134 -0.06368854979184567
-0.0890428807208372 0.07590015008436489 0.13024503872888785 -0.07085887380757307 0.6604837098408998 0.3098529400688329 -0.0602032075913955 0.032324795050961704
0.2333972179916324 0.0796990727456739 -0.08293811578233089 -0.0688078746927775 -0.07569380250473855 -0.07924404346987383 0.08111118533274067 0.08015707143801856
0.04028715437578185 -0.05071986573872708 0.038937499156017255 0.09478108335432764 0.05851746086964857 0.07240418023276696 -0.08492316896473896 0.08263204619878972
-0.05719769199972916 0.10436271378872859 0.0652618710751511 0.13039881100004705 -0.07495441832300004 0.07839408368498636 0.07079649961775189 0.07478322694932317
0.1009402222266504 0.05354022080551917 0.08963587684412914 0.0883969407888609 0.14104541850235047 -0.06962534748836731 -0.07157710486873964 0.07391128547119595
0.0592903337406914 0.623314909990757 0.03332213010021212 0.10612617108969127 0.07131294630832172 -0.048546818217373534 0.07723950407033542 0.114604603790376

conv1.lin_src.weight f8 [320, 9]
00000000: 164b d6bb 6a27 d73f 0557 b328 a12f d93f
00000010: dbdf 327b b203 d03f 9b85 a34c c29c b13f
00000020: c0f0 ee61 b5a7 b93f 8aee 8a63 af27 b13f
00000030: 90a5 2c25 83dc cbbf 68ca f404 b574 e0bf
00000040: 202e 590f e6b6 e1bf 34ed df0c 9879 f03f
00000050: 7e74 3afe 9c5c f13f cc97 6acf d330 e73f
00000060: beb3 f52f 1f65 d33f 2695 957b 6c34 b13f
00000070: f1bd 22b6 0182 d0bf a402 b001 349b e5bf
00000080: a118 3980 582e f1bf 056f f270 6388 f1bf
00000090: 71b3 7478 4fe5 dbbf 2935 b05a d0d6 dcbf
000000a0: d5dc 5c20 49f7 d7bf ca3e fc66 7533 973f
000000b0: 950b c9cc 8bf7 b43f 4dd1 2fae e6b0 503f
000000c0: 470d 7ae0 4b85 ce3f e096 53bc 6594 d53f
000000d0: 9f7c 49ba 97bc cf3f cc2c 60e4 6cb7 e13f
000000e0: f1a2 1a1e 3a7a e03f 3ab6 67bd af10 d63f
000000f0: 5f15 0917 9575 cf3f 5982 29eb 1893 d33f
00000100: fc3e 61af 61ae cd3f 83a0 b421 f068 a7bf
00000110: 8ce8 1bb3 0826 cebf 318c d183 f8e9 d5bf
00000120: e505 a13d 5f09 e3bf 925e b318 b65f ddbf
00000130: d1af 8d5c 9f16 ddbf 9ef2 975c f135 cbbf
00000140: 2df3 bfc7 15c3 bbbf 35d6 fb5e 886c b53f
00000150: e2cf 74b4 b2b3 cb3f dee5 2eda 4009 e23f
00000160: 8d3c e33e a00f e03f 48cb 6a9c d127 d4bf
00000170: 8670 14ea 3ef6 dabf cb32 eacc b6e6 d1bf
00000180: c838 5cca a7a9 b4bf 56d1 8fc0 afaf bb3f
00000190: f1fc c6c5 4273 913f a2a4 88df f73e ca3f
000001a0: 04b7 d38b 2334 d93f 7310 e471 5fac d43f
000001b0: 9dfe a559 5c18 dfbf fb09 9a09 8a13 dcbf
000001c0: ebae 7d98 6a37 d2bf c8e3 5d52 e0b6 a5bf
000001d0: 1f90 1562 4e26 833f 1a15 d5c1 9ee3 b8bf
000001e0: a226 9369 30eb c43f 6480 e50b ea36 db3f
000001f0: ddd7 9e60 d746 df3f 71b7 17c7 9667 df3f
00000200: 69c6 2bd3 48b4 d83f 803f fb2e 725c d53f
00000210: 6275 ec0c 874c b7bf 0832 34c4 4ec5 b0bf
00000220: cc7c a8b9 c16f bebf 1f80 7709 1aa7 d0bf
00000230: cdbb ed83 5534 d2bf 2570 ced8 e11a d8bf
00000240: 8d75 fd7d 9826 e53f 988d d71c fec4 e13f
00000250: d3f5 7f96 2ec2 ce3f de60 4b7b f01f b23f
00000260: e028 fe04 1ddb ad3f bae6 babc 4591 a7bf
00000270: 7973 89b7 b3db d8bf 1373 557b dc0f e4bf
00000280: a0a7 fdf7 a5a1 e0bf ce0f c2f4 e658 f6bf
00000290: 36d1 f7f8 ecd5 f3bf d123 6e75 f6f9 f4bf
000002a0: f890 7431 37b2 fcbf 830b 4dac 6f57 febf
000002b0: 5df5 822c 48d3 fdbf 68cd 4847 5d85 fcbf
000002c0: d59b 340e 2a89 febf 3c68 c1ed 7345 01c0
000002d0: 73a7 8609 c862 db3f 0731 a718 5bd7 d03f
000002e0: b895 468d 7f6b d53f 2139 863c 4f8d c03f
000002f0: b21c d26c 3920 afbf fa21 6cba 352b b33f
00000300: 04bd cdf2 5826 abbf 59e2 71e0 ad03 c9bf
00000310: a314 3142 64e8 d3bf 1395 e78b 585a e63f
00000320: 167c f3e5 7a81 d93f a518 b65f f12a d33f
00000330: 53e7 6549 8501 713f 5110 79f7 bad0 983f
00000340: 3b79 99a9 61a4 743f 7af2 9046 2972 d7bf
00000350: b8f4 d4e4 7e11 dfbf 603c fcbd d104 e3bf
00000360: 78bb 4321 55bc e2bf 56ce 1314 e37a d6bf
00000370: 08a4 f757 59ab d3bf fec5 a82e 5d88 bfbf
00000380: 5a0c d6a2 7884 a43f a980 96ba 67cc 9e3f
00000390: 9b7e 3833 b45f d13f 7f5c 52d3 5286 d93f
000003a0: 1f2b 68f5 baa8 d63f b80c 2110 f743 cabf
000003b0: 7436 5fa0 b2a8 d8bf 7c6c 3c7f 4526 c7bf
000003c0: 58ea a588 e81b b9bf 0c1a 4289 8450 9ebf
000003d0: ec87 642f 24f3 b23f d843 0ded 6b25 d13f
000003e0: f037 ca37 5dc8 d73f 1df7 3ed5 c61c d53f
000003f0: f919 5928 0028 e23f b214 705c a0f2 dd3f
00000400: 599c b467 dacd e03f 1364 8f3c ca1a bf3f
00000410: d3c7 cd3f 2242 c13f 192d 975c 882c c1bf
00000420: 9bf1 1b20 5f62 d7bf b66b efc6 7755 e4bf
00000430: 4247 65b3 2f16 e7bf 66fb 7517 1524 ddbf
00000440: 00e3 4610 7a75 d6bf ca79 0f14 b8d3 b4bf
00000450: 2dd6 aa97 248f c2bf 8ba2 55d8 b507 b13f
00000460: e65a 0f17 49a8 c23f be3b 6399 7b3f d33f
00000470: afd0 7492 d06a d53f f9be 440d 7712 d33f
00000480: 56c7 9f47 aba0 e43f dad3 8339 5302 da3f
00000490: 23b5 dabe 18ee d63f a3b4 f196 9e00 bf3f
000004a0: 54c3 d58e effb c03f f457 f7b4 aab3 a3bf
000004b0: 4669 963c 7704 ddbf a563 035f 6603 e1bf
000004c0: f48c bc09 59a3 e2bf 14aa c4a7 3a1a c13f
000004d0: e2d4 868f 0181 bb3f f28a 70ed 542d c6bf
000004e0: 23d5 926a 11d9 a63f b1ea 432d c6d9 ca3f
000004f0: 37b9 b7c4 3305 c53f 8584 f59f 1c3e c73f
00000500: b2b4 7f1d d385 c83f 0989 d339 3f99 ce3f
00000510: 1da2 c443 d494 e33f f00d e9d2 d1e3 db3f
00000520: 6815 4ad9 9d52 c53f 3b73 bab3 2dbc c23f
00000530: 619b cfe4 8842 b7bf 0743 0492 8477 b2bf
00000540: 3c37 6ffb c795 d2bf ef6c 65d1 a7ef d7bf
00000550: 8b97 8fb5 193f e1bf 9a61 819b 2059 e2bf
00000560: 9fdd 2adf bf47 e1bf ec11 b859 add9 e0bf
00000570: 4422 b15f 043e c7bf a36e 853f 1f38 b5bf
00000580: 3394 a67c 7a0a c93f 45f3 e399 77d9 de3f
00000590: b751 4dcb a580 e63f 9618 acbd 6dc1 e83f
000005a0: c4d2 e4fc 2112 dd3f a60c 8bf7 fa5f d03f
000005b0: 4c5c 94fc 0823 c43f 0dd8 4143 590c 91bf
000005c0: 3212 c439 5479 aebf b508 5001 d568 9fbf
000005d0: bf30 fec3 26cb cfbf 1bbb 34ee f8aa dcbf
000005e0: 1cea 7371 d7ef d5bf f8eb dc2c 85df e2bf
000005f0: a970 16e9 589e dabf aa7a 28d2 9208 debf
00000600: 422c 805c 34e5 b6bf 46c5 1cfe 5b0a b6bf
00000610: 4d97 4825 f144 b43f d8b3 421f f10a d83f
00000620: e30d a6f7 246c d83f c5da fa90 9a0b dd3f
00000630: 3a52 acd8 6ffd d7bf b73f fe51 77b8 dbbf
00000640: d617 738b 7f2a debf 65ee a52f 71b6 d1bf
00000650: 5fb8 0e8b 90a6 b8bf 6fc0 a535 bc06 c33f
00000660: 165a c49a 023c d23f f423 0255 47cd d53f
00000670: 255c 95fe 3d7c e03f 5c49 0249 7535 e63f
00000680: 62f2 383d 0653 e83f 37b3 f0b9 cd09 d93f
00000690: 0bec 718b 62b8 c33f 0d10 6a4c dc1d 9abf
000006a0: 06f5 12e6 08f0 a3bf ecf6 8e58 184b e1bf
000006b0: e03b bfe0 0ccf e8bf bef0 269f 0d15 e4bf
000006c0: 9c08 0776 b74c e53f 263e 406e 798b e63f
000006d0: 2a9b ac6d 85b5 d43f a51f 7c77 e91b b03f
000006e0: 06f0 a3f4 0e6e a53f 15fe e3a8 d5b0 87bf
000006f0: ceaa 75d7 482f debf db5e 4cc8 e0c1 e5bf
00000700: 4725 45da 72cd e4bf 62b2 7c5b 8912 e83f
00000710: e080 6d36 f75d e23f 54a0 f4be 2cca da3f
00000720: 2775 03c7 d066 d43f 63ff afbb 4f02 933f
00000730: 825a 4c8a 3cee c6bf b1d7 11f2 3907 e2bf
00000740: c0bf 0e52 b4d1 e4bf ba02 36d2 e382 e6bf
00000750: 700f 41b1 02f5 dbbf 7e6b cb8f 77b4 d5bf
00000760: 5783 e504 0397 d4bf 8da2 12bf d3e2 c8bf
00000770: 647d 5d4e b94f b4bf 4043 f3a9 8137 803f
00000780: b80e 9c6d acf0 cd3f 2b6f 89ce 5b4c d73f
00000790: 2416 6650 daf5 d93f d0e3 3a3f 804e dbbf
000007a0: 7208 f4a1 a1d8 d4bf 250c edea a11b dcbf
000007b0: 5cbe ae07 90a0 d7bf c045 bc0a 6b1b b7bf
000007c0: 3463 44eb 40c3 d23f 36ea 7b91 0386 d33f
000007d0: 4844 ef98 a7ab e83f ffd2 f556 254f ec3f
000007e0: b5a7 e3de c9c8 d8bf 6c67 8917 1ab2 c2bf
000007f0: f807 531b d645 b0bf 44e5 c6ff aee5 a83f
0.3617808184000507 0.39353207564032316 0.2502256587135869 0.06879820223868764 0.10021527901602933 0.06701179676286464 -0.2176670009151107 -0.5142464730073018
-0.5535764980099351 1.0296860220831379 1.085110657767728 0.7247103739834926 0.30304698642322225 0.0672061731070995 -0.2579349783581782 -0.6751956971130153
-1.0738148697578611 -1.0957979595177119 -0.43587099803226353 -0.45061119896202456 -0.37446811829017906 0.022657236490941902 0.08190225362436217 0.0010187390078018777
0.23844288311748071 0.3371824587942296 0.24794289203689332 0.5536407909834451 0.5149202907533362 0.3447684621486108 0.24577582955150043 0.30585310902646295
0.2318842035624512 -0.045722488512468316 -0.2355357050472019 -0.3424054419794543 -0.5948940471354801 -0.4589667550294304 -0.4545057681887075 -0.21258370419663647
-0.10844551207260329 0.08368732756556414 0.21642144976942662 0.5636295567884948 0.5019074657701751 -0.3149303462516184 -0.4212796483932454 -0.27970666896071056
-0.08071373644290525 0.10814951373305823 0.017041247674339514 0.20504663862928846 0.39380730299932076 0.3230208027091585 -0.48586186175087126 -0.43869257867495975
-0.2846323479813992 -0.04241086011365486 0.009350406997960246 -0.09722320778117358 0.16342740206737455 0.4252266994644798 0.48869881091684225 0.49069756930008795
0.3860036909310112 0.3337674578478911 -0.09101146760482018 -0.06551067628988261 -0.1188927725092867 -0.26019907879345 -0.2844442165723507 -0.3766407601594913
0.6609613857978488 0.555296951610603 0.24030096386552077 0.07079985628240901 0.058312327250932716 -0.046030215538349364 -0.3884095470764844 -0.626936188589385
-0.5197324603625368 -1.3967046318875762 -1.2397279477418812 -1.3110260569685475 -1.7935096675728897 -1.8963467340952043 -1.8640825022442506 -1.7825596603914509
-1.9084873728659109 -2.1589125227592643 0.42790413790009224 0.2631442776444292 0.33468617245156507 0.12931242423332726 -0.06079272702577877 0.07487808038070645
-0.053026942862624465 -0.19542478045674974 -0.3110590597537543 0.6985285503875808 0.3985278363815622 0.29949602457817043 0.004151840831008463 0.024233743052051008
0.005039578909047211 -0.36634284869413813 -0.485442851513493 -0.5943382940912549 -0.5854898118685545 -0.35125042877846135 -0.3073333128982658 -0.12317449940817224
0.04007317531343153 0.03007661892263572 0.27146630289096557 0.3988234580696783 0.35404848065870625 -0.20519912993959166 -0.38529649411507383 -0.18085545265862268
-0.09808209739814211 -0.02960402572400693 0.07402254254387203 0.2679090323409219 0.3716042561362647 0.3298813898544369 0.5673828876541044 0.46793374087458084
0.5251285577295547 0.12150253275412153 0.1348307429830685 -0.13417152901670518 -0.3653791249814959 -0.6354330907300809 -0.7214582923718142 -0.45532729426479646
-0.35092021550694596 -0.08135557641751415 -0.14499337583190322 0.0665239003334454 0.14576066614127753 0.3007496831823423 0.33464445402502013 0.298002016980703
0.6446129225644011 0.406391912619538 0.3582822669803411 0.12110320267830103 0.13268846964231307 -0.03848012408313642 -0.4533975688624604 -0.5316650253035858
-0.5824399175802726 0.13361294929320933 0.10743722681111792 -0.17325841516238644 0.044624847659557675 0.20977093897075386 0.1642212591681955 0.18158300219059612
0.19158400478719312 0.23905172656584053 0.6119176219554593 0.43578000637737 0.16658375844796613 0.146367752798051 -0.09085898958401863 -0.07213619770869793
-0.290391917745058 -0.37400241326186195 -0.5389526887999961 -0.5733798062529332 -0.5400084837664741 -0.526571917755573 -0.1815801112409351 -0.08288760472117444
0.19563227735958008 0.48202314403879526 0.70320405681064 0.7736118988548408 0.4542317361513535 0.2558581750310601 0.15731918652520205 -0.016648668985418214
-0.05951941685819796 -0.030673340039364578 -0.24838718957869863 -0.4479353262167238 -0.3427637679994022 -0.5897851825933449 -0.41591475260225735 -0.4692732860875518
-0.0894348836738326 -0.08609557107844976 0.07917697105639583 0.3756678395537256 0.3816006105846254 0.453833238202986 -0.37484356078610725 -0.4331339169229937
-0.47134388559459006 -0.2767603841127538 -0.09629157443007007 0.14864304179673435 0.28491273035015874 0.34065421392057194 0.5151662800152549 0.6940256524997426
0.7601348109961459 0.39122336538530383 0.1540644818195179 -0.025504533924063866 -0.03894069489022382 -0.5404168824822739 -0.7752746953573215 -0.6275699718894641
0.6656148247932552 0.7045256760920366 0.3235791750943685 0.06292590300665653 0.04185530411083964 -0.011567753998405409 -0.47163601914386966 -0.6799167549206361
-0.6500791800582782 0.7522627627236711 0.5739704192201565 0.4185897698212149 0.31877536234772424 0.018563505011115377 -0.179145400551267 -0.5633821227954653
-0.6505986788451921 -0.7034777742083727 -0.4368292551991919 -0.3391398338550785 -0.3217170284097412 -0.1944222147915479 -0.07934148944103964 0.007918370245904804
0.23390727378874998 0.3640355603181315 0.4056306634086886 -0.4266663186531874 -0.3257221299719567 -0.4391865534018414 -0.36917496443036213 -0.09026211750121771
0.29316733336740985 0.30505456168581035 0.7709539401058771 0.8846613596384428 -0.38725516096621543 -0.14606023930792433 -0.06356561820123818 0.04862734672810601
