legacy/DG-1D/GNN/GNN_Model.pt (torch, 24547 bytes, 10 tensors)

conv1.att_src f8 [1, 8, 24]
000000 a5 c2 b6 f5 64 3e 1b 40 c6 23 b8 60 f1 a7 20 c0
       6.810932006149106 -8.328013441541668
000010 d0 a9 94 29 e8 a7 1f c0 ed 33 8d 9e 95 9d 19 c0
       -7.913971566866579 -6.4038910649951335
000020 f1 43 a2 90 94 9c 0b 40 2a 00 f8 60 a4 21 15 c0
       3.451455240203807 -5.282853617798574
000030 12 a6 21 a5 de 42 1e c0 df 49 af 81 4b 40 1a c0
       -7.565302448443179 -6.562788034747853
000040 f8 d4 c6 8c b6 cd 14 c0 d7 71 6f f6 bf 3e 01 40
       -5.200891685138451 2.1556395771751613
000050 9e 90 b8 89 f8 54 f8 bf 80 b8 41 cf fb 17 1f 40
       -1.5207448367810126 7.773421514879487
000060 b8 80 2b 0f d4 22 1c 40 bd 88 e1 1b dd 67 e8 bf
       7.034012066869927 -0.7626786751318587
000070 1b 99 6b c4 7f ac 12 c0 7a 6c 9b 01 d0 44 20 c0
       -4.66845614344336 -8.134399461958527
000080 72 c3 e0 62 c3 01 0e c0 60 69 d7 f4 fb bf d2 bf
       -3.7508609509317745 -0.2929677859334756
000090 8b e0 99 c4 78 64 20 c0 4d 57 e4 63 ef e7 1a 40
       -8.196233886512593 6.726499138652639
0000a0 f3 ae 72 8b ad ee 18 c0 09 e7 48 a0 8a ec 0c c0
       -6.233083895563811 -3.615498783325965
0000b0 6a 65 95 8f 3d 09 22 c0 a8 4d 52 6c 69 70 19 40
       -9.018047797190508 6.359777157328985
0000c0 9f d6 d2 59 e1 fc ea 3f be 6b 31 1b d8 a2 d9 3f
       0.843369174420065 0.4005642190510875
0000d0 08 17 89 26 1f a8 bd bf 30 d3 d3 2d b3 cc ba bf
       -0.1158465832787351 -0.10468597287019743
0000e0 2c ea db 42 2a 47 d3 3f 16 30 03 03 67 10 e8 3f
       0.30121857194140733 0.7520022448384249
0000f0 c2 19 f7 31 ae a0 93 bf b2 e9 47 6e 23 b7 c9 bf
       -0.01916763477290729 -0.20090144047555963
000100 95 da c2 cb 2f 2b e0 3f 22 a5 5c 97 ea 5c db bf
       0.5052718143186491 -0.42754616528925926
000110 03 89 7f b3 f0 58 e5 3f dd 05 38 b0 65 92 dc 3f
       0.6671069627593912 0.4464353772055725
000120 10 58 fd b6 3d 50 c7 3f f8 90 6a c7 41 87 c7 bf
       0.18213626322784693 -0.18381521451113492
000130 e3 cd 7b ee e6 cd 91 bf 8d 22 65 14 a1 c4 c5 3f
       -0.017387016588100834 0.17006314750530685
000140 31 77 bc 93 1e d1 bf 3f 83 f4 a5 b1 3d dd ea bf
       0.12428465945091884 -0.8395069570248243
000150 b3 c1 f5 21 bf 41 dc 3f 1a 7a 74 e3 4b 31 d4 3f
       0.4415128547325608 0.31550881588364776
000160 eb 0a c3 ee 6a 06 c3 bf 3a d5 16 9f 05 96 d6 3f
       -0.14863335283560927 0.35290661369375054
000170 52 0e 34 b0 98 58 e2 3f d4 9b d2 17 18 d8 d4 bf
       0.5733149949523499 -0.32568933798250765
000180 57 f7 1f 07 a9 73 e4 bf 55 ea 9e 35 cd 7a e1 3f
       -0.6391186846883369 0.546240429618886
000190 d6 02 fd af 1b 9f dc 3f 37 80 d6 ed 1b 2a e8 3f
       0.44721119104728524 0.7551402707358709
0001a0 df a0 da f3 98 6e e5 bf 78 eb 82 d8 75 2e 96 3f
       -0.6697506678365491 0.021661607112700904
0001b0 54 23 59 0c 28 27 e8 bf 9d 9e b9 31 b2 01 ec 3f
       -0.7547798386741342 0.8752070399468327
0001c0 2d f6 16 b4 ae e0 f0 3f d3 0d b5 92 19 c2 e3 3f
       1.054854110217444 0.6174438348174881
0001d0 b2 f9 90 93 dc f1 f0 bf 30 c2 63 56 7d 82 d2 3f
       -1.0590482487019526 0.2892144530915486
0001e0 d0 8e 52 85 11 23 e6 3f f2 86 7d 0d 3d 62 de 3f
       0.6917808155016818 0.4747460014096837
0001f0 9c b1 72 da d3 55 c0 bf f2 a2 06 68 ad 5b d9 3f
       -0.12761924902350763 0.3962205425146258
000200 fa 11 bf 4d 94 80 ad 3f 58 57 37 d6 de 6a ca bf
       0.057621607294581836 -0.2063864274957108
000210 8b 63 7e af ab 28 fe bf 36 3c b1 28 3e 9d d2 bf
       -1.8849293570731074 -0.2908473393808352
000220 7a 1c 99 2c 88 29 f5 bf f1 3f 76 d9 df 30 f1 3f
       -1.3226396314728661 1.074432229481314
000230 86 fe 82 93 25 55 e4 3f 84 98 c2 b6 29 bb d5 3f
       0.6353938942992989 0.339548519589137
000240 d8 46 a3 f3 26 8a 1a 40 6c 2c 19 bd 1f a7 1c 40
       6.634914213982221 7.163207010899992
000250 df be a6 52 21 be 1e c0 6e 02 51 66 d3 ee 00 c0
       -7.685673991610854 -2.116614150378431
000260 bb 66 7b 91 59 91 1b 40 ed c0 e5 38 37 8f ef 3f
       6.891943238407914 0.9862323867110071
000270 00 21 ee 5a 1a ef 1f 40 5f f4 1d e4 74 ae 03 c0
       7.98349897459434 -2.460183889545575
000280 77 73 1a 16 5f 3f 1e c0 f2 4e 2d 90 9b 64 1c 40
       -7.5618861631054335 7.098249676480679
000290 f0 37 81 82 18 06 18 40 44 93 5f fa 5c 24 1a 40
       6.005952872406837 6.535510933001948
0002a0 e7 27 df e8 9a 4f 1d 40 2a aa 84 ed 8b 1d 18 40
       7.327739370937684 6.028854094717227
0002b0 f4 ca 21 9a f3 ac 02 40 ed 38 f5 5c d6 fe 00 40
       2.334449009090685 2.124432302697747
0002c0 4a e1 16 9d 0f 4e 1a c0 db f1 1e 58 55 4d 02 c0
       -6.576231436273085 -2.2877604374354923
0002d0 59 94 04 d2 a3 ee 04 c0 2f f3 72 e1 74 51 20 c0
       -2.6165234000823543 -8.159094853670096
0002e0 a1 e2 43 44 02 9f 17 40 c3 4a 12 df 3a 93 01 40
       5.905282084124935 2.1968896319825446
0002f0 33 43 fd 1f 31 ec 1a c0 f7 b2 e4 b9 8c 82 16 c0
       -6.73065614684383 -5.627489952644047
000300 c2 40 54 49 fc 89 02 c0 a1 84 c2 ce 64 e2 08 40
       -2.317375729449936 3.1105438378441055
000310 86 33 cd bd 8c 47 1a 40 cb 2b 75 29 67 4c 12 c0
       6.569872823380939 -4.574612281586222
000320 38 d6 1b 23 93 8e 17 c0 44 a2 f0 e2 cc 16 19 40
       -5.889233158659003 6.272265954911351
000330 e8 97 38 90 c7 47 01 40 02 da a9 c5 29 5d 1c 40
       2.16004860565862 7.09097966050331
000340 3a 81 e3 ad 58 c2 19 c0 75 46 56 41 65 b2 ff bf
       -6.439791409502783 -1.9810535957552962
000350 dd 1b 40 d1 6d 6a 12 c0 23 49 5e 8e 09 e0 e2 bf
       -4.603934545076268 -0.5898483067160537
000360 df 22 52 e6 b9 45 1d 40 5c ea 0d 60 6f 2c 19 40
       7.318091963542172 6.293393612717946
000370 05 4c 8d 74 b5 d7 1b 40 39 93 d4 65 c0 19 20 c0
       6.960653134464342 -8.050296003531558
000380 65 79 d8 72 94 1a 0b c0 cf 7c b3 82 2e 4f 10 40
       -3.3879784557640726 4.077325861172723
000390 a2 ce 5a c2 cf f9 e1 bf cc 73 31 49 12 cc 20 c0
       -0.561744575118116 -8.398577010428106
0003a0 8a fd 43 b4 60 22 1a 40 e1 b6 21 22 58 64 12 40
       6.533572022104076 4.59799245196129
0003b0 e7 e0 10 9a c6 7c 1a 40 30 e4 11 4d 01 42 eb 3f
       6.621851355819877 0.8518072610160115
0003c0 b7 38 cf 0a 40 3e fa bf d9 5f e4 54 e6 9c 15 c0
       -1.6401977941746233 -5.403222395361774
0003d0 1b dd 7a 1e cf 98 11 40 c0 20 ce b6 9e 4b 0f c0
       4.399227596520428 -3.9119238168387653
0003e0 4b 11 f4 a8 69 d0 fb 3f f7 e7 2e 29 c7 67 01 40
       1.738382015203643 2.1756728379668817
0003f0 c2 55 7d 91 8d a9 e4 3f 3a 47 a0 b2 7c 48 20 c0
       0.6456973878472854 -8.141576368394102
000400 f6 b9 30 a6 95 bf 1e 40 22 8e 4f 5e 2c 1c 20 c0
       7.687094303821587 -8.055026004039124
000410 d0 7a b1 12 fc cb 11 40 03 e8 61 1f ce e8 00 40
       4.449203769762519 2.113674397635806
000420 bf 50 e2 c3 fe 47 14 40 4d 3a ca be cc aa 1f c0
       5.0703077895051925 -7.916796666234018
000430 10 a6 f3 ef 5b 0a 14 40 a4 77 51 25 2a 5a 19 40
       5.010116338010917 6.338051398370144
000440 05 6f 83 ae f6 5e 1b 40 bf 6b aa 84 64 78 12 40
       6.842737890979838 4.617570946599641
000450 aa 0e 36 35 23 33 19 40 53 52 e1 0b 21 05 fe bf
       6.299938994812388 -1.8762522186344952
000460 f0 a3 95 37 e9 75 0c 40 92 f5 00 ef b8 60 fc 3f
       3.5575737326184864 1.7736138664325591
000470 2e 07 d8 a3 55 bc 09 40 7f ef a4 f8 bc 1d 17 c0
       3.21696022036567 -5.779041180674425
000480 fa a8 34 d2 63 28 e0 bf 0e e8 ca e5 2b b9 dd 3f
       -0.5049304109172958 0.46442696991619037
000490 39 48 e2 9b 98 30 c4 3f ac fd ed 96 a2 cf f8 bf
       0.15773303615111603 -1.550692166871026
0004a0 d2 80 a6 a3 be 9a e7 3f f9 c8 bb b7 61 1c f5 bf
       0.7376397320076882 -1.3194291283694481
0004b0 bb 64 f4 69 34 72 ee bf 74 30 16 2c 74 a9 f5 bf
       -0.9514410085131638 -1.3538705560813726
0004c0 a0 91 27 f8 9a 73 e0 3f 10 52 55 f7 0a 06 f0 3f
       0.5141119810837615 1.0014753018814453
0004d0 70 7d 5c e2 5d 0b b9 bf 96 91 7e c7 0a 2a f5 bf
       -0.09782969261549623 -1.3227641861677504
0004e0 e6 53 8c 05 1b 43 e8 3f e9 7c 6c ec a6 d8 e9 bf
       0.7581915958750158 -0.8076967828418705
0004f0 7f 5f 2c 42 68 4e de 3f d2 ca 6f 2d cd 6a f5 bf
       0.47353559934844464 -1.3385745787497183
000500 16 95 6b 0b d2 01 b0 3f 56 16 43 e8 e6 e4 e5 bf
       0.062527778423448 -0.6841921364181853
000510 8a 29 32 cc 3a c4 ed 3f 11 68 9f 8b 88 a2 d4 3f
       0.9302038181497647 0.3224202502730132
000520 45 92 24 78 75 b5 f9 bf c2 ef da ff bf 03 89 3f
       -1.6068014805870388 0.012214183803159421
000530 12 a1 95 d0 27 c5 e8 bf 5f 02 de e1 53 89 d5 3f
       -0.7740668367305565 0.3365068155035597
000540 6b b2 35 93 92 f2 13 c0 e6 18 76 da c4 fb 1d c0
       -4.98688726439705 -7.495868123491368
000550 f8 50 c2 5a 55 46 0b 40 25 5e 86 07 a2 b7 14 40
       3.409342488341391 5.179329030586392
000560 59 78 3c ad 2d a9 f4 3f cd 4d 38 5d 49 c8 1b c0
       1.2913033263244158 -6.9455923619857005
000570 7d b2 31 2a 46 7a 20 c0 2a f6 d4 05 44 a5 0f 40
       -8.238816565100246 3.955696149407932
000580 3b 06 66 a1 97 87 17 40 18 c4 97 48 5c 4a 18 c0
       5.88241436181266 -6.072617658865987
000590 9b a3 f3 d3 7d 64 19 c0 87 80 d7 89 a5 dc 13 40
       -6.348136245484876 4.9654752290517825
0005a0 4a 6b df 09 9b 8e 05 40 98 51 25 a3 c4 3a 16 40
       2.694631650095663 5.557390736725573
0005b0 40 df 4a 3d 6a 8a 19 c0 16 5a 81 6e b6 84 09 c0
       -6.385170896239117 -3.1898010857796733
0005c0 2b b0 db 5d 2f bd 1f c0 19 1d 5b 28 ce 29 1d 40
       -7.934751001867009 7.29082549148668
0005d0 bb 0a 00 c6 6e a6 f8 3f dd 0f 9e 1b 24 b7 18 c0
       1.5406329855328937 -6.178848678133332
0005e0 1b b3 34 dc ab 3b 14 40 d9 38 18 13 82 b5 10 40
       5.058272782055407 4.1772540076765035
0005f0 c7 18 5e 53 48 98 16 40 ad 2c bc 35 3e 2f 1f c0
       5.648713400476658 -7.79613574944521

conv1.att_dst f8 [1, 8, 24]
000000 0c 6d 06 0d 40 85 d2 bf fc b6 e8 9d c5 6a ec 3f
       -0.2893829467008835 0.8880336841736773
000010 a8 dc e6 2e a6 d3 ce 3f bd de e8 01 69 78 d3 3f
       0.24083401956679507 0.3042242544793046
000020 23 f8 9f 9d cf d8 ba bf 65 dd 68 16 9e 3d f2 bf
       -0.10487077329887078 -1.1400433421493628
000030 e4 18 f6 a5 12 6a dd bf bf 1b b4 74 a8 8b df bf
       -0.45959917266044514 -0.4928990497286882
000040 a9 84 b8 5b 4d 3e d5 bf b6 aa 31 13 f5 2d dd bf
       -0.3319276233397184 -0.4559300124589457
000050 5f 09 88 e5 78 0a e5 3f 43 0e 9c de 1f 69 f1 3f
       0.6575283511195201 1.0881651588141643
000060 fe 08 33 ce 94 04 da 3f 3d fc be 29 2e 71 fe bf
       0.4065296186128221 -1.902631915159659
000070 7b ca bd fd 1b 2e f1 bf 04 d0 50 16 db 12 e1 3f
       -1.0737571632168101 0.5335517345288285
000080 19 9b c4 6a fe 58 ed 3f 5e 3b 19 00 86 cd fb bf
       0.9171135030090652 -1.737676620850571
000090 68 35 17 00 9c 16 e6 3f de 43 38 3d 59 bf f0 3f
       0.6902599336405446 1.0467159644506334
0000a0 28 e8 0a 35 ea dc f4 bf 10 34 03 15 9a 81 f9 bf
       -1.3039342948891406 -1.594141084747438
0000b0 bb 29 b7 1e 59 5c d7 3f 0b 91 31 aa 9c 5c af bf
       0.3650114822345604 -0.06125344827231246
0000c0 00 64 1a 47 94 d2 cf bf f0 d1 fd 5a b1 e8 e9 3f
       -0.24861386749105918 0.8096548821618494
0000d0 0a 4f 4f 67 7d 3d d9 3f e6 c4 3a 26 8f 6b e6 3f
       0.3943780430683864 0.7006297823592404
0000e0 2e c3 bc e2 09 12 e5 bf 1a 56 b6 24 ce 8b ef bf
       -0.6584519794906549 -0.9858160702739867
0000f0 40 ce 1b 5b 07 3d d5 3f 70 02 52 5c 1d b2 96 3f
       0.3318498983128144 0.022163828620707482
000100 3a c5 fc 91 73 ef 0b c0 ed a5 83 2a 2d 2c b0 3f
       -3.4919196515335473 0.06317407882638522
000110 c6 0d 9c 33 97 68 e6 3f dd 31 23 6e 5d 52 dc 3f
       0.7002674110412321 0.4425271583138775
000120 f3 a4 16 21 31 40 dc bf a8 22 86 e6 43 1f 00 40
       -0.44141796332640054 2.015266228645789
000130 ca eb 18 39 5b 3c dd bf 75 c0 05 9a a2 d2 e8 bf
       -0.45680885864174725 -0.7757123001338316
000140 a7 7e 71 20 6d 1e e2 bf d5 5d 33 50 7b 6a e1 3f
       -0.5662141450556718 0.5442482534808116
000150 20 5c 36 cd 39 18 cc 3f 78 3b 24 77 9b b1 f0 3f
       0.2194893123639483 1.0433611539808378
000160 28 b1 19 f4 32 ea d9 bf b7 4a e0 39 90 81 c6 bf
       -0.4049193748276303 -0.1758289606664982
000170 ce cc f5 d7 28 c7 f8 bf 02 47 4f 8c fc 63 f0 bf
       -1.5486229358619314 -1.0244107704970138
000180 50 9b 24 5d 74 0f e3 bf 01 69 43 33 71 56 e1 3f
       -0.5956365412901992 0.5418020249592531
000190 7a b6 b6 7e 4e 65 ef 3f 30 fc 59 0c 4b 06 f3 bf
       0.9811165308835392 -1.1890364153366697
0001a0 89 f0 98 a3 5f 40 00 40 c3 47 70 26 3d c7 f0 3f
       2.0314324170158824 1.0486423017032258
0001b0 26 c7 fd db fd 34 e2 3f 2c f7 97 fe 28 45 ee bf
       0.5689687058167905 -0.9459423992663907
0001c0 fe 06 fc 9a 56 13 05 c0 cd b7 4f 0b 41 cc ee bf
       -2.634442530456794 -0.9624333592344044
0001d0 37 97 ee b7 f4 3b d4 bf c1 75 9b fa 3b fd d7 3f
       -0.3161594196520698 0.37483119462362074
0001e0 65 3f 6a df 67 12 d4 bf b2 f8 1f 0b 39 6d fa bf
       -0.31362339799760824 -1.6516657290044745
0001f0 99 b8 25 d5 4b 65 e5 3f 49 85 d3 af 1d be e6 bf
       0.668615261367239 -0.7107075151545043
000200 f8 cd 7d 02 50 93 ea 3f 47 b3 63 4c 53 2c 03 c0
       0.8304824875507952 -2.3966432540823095
000210 bd 5d 88 9c 91 7f 01 40 f5 9f 0e 06 48 3a f3 3f
       2.1872894505611087 1.2017288433653424
000220 eb f6 b9 19 0e 23 f4 3f 3e 48 48 52 cb 0c f7 bf
       1.2585583691538271 -1.4406235899118793
000230 e8 f0 e4 4b fc bf f0 bf 2a ef 11 c4 e2 fa ea bf
       -1.0468714680310374 -0.8431257085316919
000240 55 98 bc 2d 44 79 f6 bf 4e 35 02 bb 3a fe e8 bf
       -1.4046060358609982 -0.7810338642608856
000250 81 cc c5 0b f7 5b f5 3f 2a c5 2b 69 53 7b 02 c0
       1.3349523982876976 -2.310217687271366
000260 36 d1 14 be 99 a7 ec bf d1 dd b7 40 2a e4 f3 3f
       -0.8954590523267487 1.2432043579154775
000270 3c 6b d2 e9 95 52 fc 3f 5e 4d 52 ff e9 3b f2 3f
       1.7701624997777818 1.1396274541374036
000280 f6 71 37 44 61 6f ff 3f 68 47 02 f3 0c 45 f8 bf
       1.964692369910265 -1.5168580524955022
000290 ff 62 d4 52 bd c4 f0 bf e1 57 4a 0c 93 8e f7 3f
       -1.0480321155102386 1.4723082046598324
0002a0 6c 69 e9 f4 91 1b fd 3f d7 de 16 52 13 ed ea bf
       1.8192309920183005 -0.8414398768718127
0002b0 e7 7d 63 a1 34 11 00 40 5b 7a 58 37 b1 76 f8 bf
       2.008401165817975 -1.528977600282494
0002c0 31 e9 7e 48 7c 42 a3 3f fc 11 9d 9e 22 af 02 c0
       0.03761661896665414 -2.335515250366596
0002d0 0a f9 10 10 56 82 01 c0 6c 2b 97 a7 a7 18 f2 3f
       -2.188640714185685 1.1310192629341271
0002e0 48 d1 e5 d5 14 e0 00 c0 92 ee 71 71 f0 b0 00 40
       -2.109414740634893 2.0863961089033376
0002f0 8d 59 1a b2 60 89 f2 3f 28 2c 80 42 af 58 ed bf
       1.1585394818444883 -0.917075757869843
000300 6e f1 ef 3f e1 cf 00 c0 c9 82 04 f3 3b d6 df 3f
       -2.1015038485622233 0.4974508164614631
000310 50 d2 63 93 80 1d d8 bf 10 b0 a2 a7 75 44 03 c0
       -0.3768006743769421 -2.4084275337718353
000320 ed 59 e0 fb 66 ef 03 40 15 bd 7b 6c 33 5d 6e 3f
       2.491895644935758 0.0037065510149357863
000330 60 8f 22 4c 24 cb ea bf 33 68 a3 9b 1e b2 e0 bf
       -0.8372975813876842 -0.5217431106386868
000340 74 7a 0e e0 b9 30 e5 3f b8 22 2d 95 4c ae c2 3f
       0.6621980072121247 0.14594418796538888
000350 d7 20 bf 17 ef fa e1 3f 2e 86 6d 8b af 0a eb bf
       0.5618815864372902 -0.8450544093322543
000360 c6 70 26 2a fd 2c fe 3f be 91 39 fe 30 05 d9 bf
       1.8859836241236265 -0.39094185663841674
000370 2b 85 97 b5 ed 0f c1 bf a1 ce 67 d1 5d 94 f0 3f
       -0.13329860083380515 1.036222284307691
000380 d1 4f 2c 07 23 cc ee 3f 17 89 02 7b fc 4c e1 3f
       0.9624190464114638 0.5406477358376688
000390 19 b4 bf f8 a7 69 e8 bf 31 7f 2d 69 5d c4 e5 3f
       -0.7628974779487435 0.6802203230144866
0003a0 0c 28 ae de bd 4f d9 bf 69 52 4e 00 e7 e9 f0 3f
       -0.3954920458423892 1.0571050655318237
0003b0 8e b2 e4 d2 dd 04 fb 3f ad 45 d1 d8 37 98 d5 3f
       1.6886881101628748 0.3374156586988544
0003c0 9f 70 1f 15 09 58 fb 3f 95 27 b5 30 33 72 00 40
       1.708993036757455 2.0557617001804354
0003d0 bf 12 3f 5e 80 d8 fa 3f de c8 11 e3 61 af fb 3f
       1.6778567964076243 1.7303179616833897
0003e0 b0 6b b9 03 a5 b7 fc bf 73 71 e9 6c fa ac fe bf
       -1.7948351045113036 -1.9172310118074989
0003f0 7b 2e 13 f2 9e 97 f9 3f 8e db 19 16 07 30 ff 3f
       1.599516816716373 1.9492255080528795
000400 38 09 b4 4b 74 59 fa bf 8c 62 92 f0 0d dd a2 3f
       -1.6468394238623443 0.036842761627842696
000410 09 7d ab 88 73 9d d1 3f a3 21 b2 5d 0b ee f1 3f
       0.27523506495158806 1.1206163082116312
000420 5b 0e d7 c2 93 16 b2 3f 05 30 e0 e0 5b 6a d2 bf
       0.07065700060689421 -0.2877416320850446
000430 ad 85 8d 26 6f bd 00 40 ed d3 bb 05 ce d1 f2 bf
       2.092497159189142 -1.176221868893886
000440 cd 2f 46 3a 2e 22 f2 bf 00 dd 4f 48 b0 51 d5 bf
       -1.1333448673567432 -0.33311087667193817
000450 99 95 05 47 36 2f f3 bf 55 e7 08 3c 87 8e 04 c0
       -1.1990263723649603 -2.5695938768593956
000460 09 73 fc 7f e0 b4 fc bf c4 71 87 0c f2 b5 06 c0
       -1.7941594123323645 -2.8388405779680586
000470 8c a0 b3 4d c3 83 e1 3f c9 e3 06 24 e8 5d ff 3f
       0.5473343389139855 1.9604264647771166
000480 23 bb 39 1c 6e 28 dc bf b2 17 07 ea 40 14 9a bf
       -0.4399676585807574 -0.02546788624183422
000490 bd af 74 13 d0 b4 cd 3f 36 8c 59 84 db e2 ad bf
       0.2320804686545425 -0.058371410280209465
0004a0 40 f0 87 bd bf 53 a7 bf cb c8 c2 51 2b bd d3 3f
       -0.04556082905398329 0.30842097267590124
0004b0 db 6c f5 d3 9d 4d 82 bf c5 fc 82 7c 3b ed e1 bf
       -0.008937104254690123 -0.5602090293758911
0004c0 c9 6e fc 33 7b 2a ca 3f 6e 82 bd d7 25 3a c0 3f
       0.2044214252317629 0.1267745307368559
0004d0 fb 0a d2 04 71 37 d3 bf 41 a9 09 67 4d bb c2 bf
       -0.30025887938261037 -0.14634101420535653
0004e0 cb e7 9e 36 35 6f c1 3f 3c af bb f8 61 d5 b8 3f
       0.13620629469897802 0.0970059616335534
0004f0 4a 7c d9 47 41 c5 d1 bf 6d 76 16 ea 13 cb 97 bf
       -0.27766448990400205 -0.023235617792684616
000500 00 67 d5 d0 15 82 cd bf 87 3f 4b f5 2a 6e b9 bf
       -0.23053238579705493 -0.09933727730390106
000510 6f 21 3b d1 84 73 c5 bf 00 e8 a4 66 6c 71 a6 3f
       -0.16758785454136269 0.04383410218220263
000520 f5 95 37 65 20 87 e6 3f 71 e5 11 02 96 73 96 3f
       0.7039949395081623 0.02192530048021041
000530 39 10 f4 98 99 f3 73 3f 8b 5c 6a c4 16 44 e4 bf
       0.0048709869290668945 -0.6333116375198115
000540 3d 3f f0 18 f4 a9 d0 bf 37 4f ab a8 2d b6 f1 3f
       -0.26037313876530616 1.1069771374358888
000550 1c ea 30 08 a9 c2 04 40 a0 72 d7 22 24 44 fb bf
       2.595048965447189 -1.7041360245704382
000560 58 0d 41 43 24 31 f6 bf 22 29 f4 5e d1 b7 f8 3f
       -1.3869974734414736 1.5448774060374224
000570 6a cb 7f 47 cf 99 f0 3f 16 0a 15 d3 a5 3d f6 3f
       1.0375511925637633 1.3900507207296235
000580 a5 09 77 5a e9 29 db bf f9 ed b4 c6 86 c5 f5 3f
       -0.4244330771872689 1.3607242357237495
000590 5a cf 92 4d f0 0f 03 40 de 7c 39 42 4d 37 de 3f
       2.3827825603893134 0.47212535350077
0005a0 90 6f bb 5f f1 42 fc bf 37 c3 32 a6 d6 21 f0 3f
       -1.766343473390382 1.008261346065593
0005b0 71 be f5 02 04 91 04 40 a7 84 11 d0 a5 ff f1 bf
       2.5708084326977816 -1.124913990752512
0005c0 f1 93 6e 5b 8a 9e f6 3f e7 6d cb 20 ce 99 ef bf
       1.4137061664162014 -0.9875250473518776
0005d0 08 39 21 8f 48 0f f2 bf 95 89 2a 24 8d da 07 40
       -1.128731307125749 2.98171451811613
0005e0 bb 60 00 74 ac 84 f6 bf 0f bc 42 44 25 e2 d8 bf
       -1.407391026621595 -0.3888028303726409
0005f0 df 6b f6 30 96 10 01 c0 41 54 af 37 e0 08 fb 3f
       -2.1330989670945963 1.6896669554892159

conv1.bias f8 [192]
000000 58 6d 00 ba 47 f2 b1 bf 0e f1 9e 9b d1 3b 6a 3f
       -0.07010315218979224 0.0032023519424609964
000010 4b b4 a6 27 57 f7 88 bf 00 42 60 d3 78 98 d1 bf
       -0.012190514466818089 -0.2749311508387393
000020 bd c4 be 65 8d 90 ad bf 10 70 56 99 d4 1c c8 3f
       -0.057743471784655644 0.18837983596029106
000030 f7 55 a4 f5 e7 cf ba 3f a0 8a 6f 34 5b 25 c1 bf
       0.10473489520185085 -0.13395252285325387
000040 40 e4 b3 ed 9c 23 d1 3f e4 f3 b0 e0 e8 f7 91 3f
       0.26779864514498186 0.017547262872756778
000050 57 29 04 90 62 2c a5 3f d2 ee f6 d3 4e b4 a3 3f
       0.04135425575266776 0.038485015272696224
000060 58 ce fd 77 3a c0 b5 3f 5b 36 93 4e 86 7b a1 3f
       0.08496442250707881 0.03414554318588322
000070 bc 22 74 32 84 55 c0 3f b9 a6 cc 06 21 da 91 bf
       0.12760975326115964 -0.01743365863800392
000080 5a 44 a3 c3 72 1e be bf b7 55 db 12 f2 a0 dd 3f
       -0.11765210415184538 0.46294833985788436
000090 62 be a5 30 a1 90 93 bf b1 f1 b1 15 3a c7 d0 bf
       -0.019106405824855684 -0.26215984457646885
0000a0 0b 4c 82 57 66 ff bc bf 12 71 55 7a 43 a3 c7 3f
       -0.11327209125947506 0.18466990922286947
0000b0 6d d5 8e 96 a3 96 7f bf 57 8a c6 9f 32 2c d0 bf
       -0.007712019935686027 -0.2526976166065302
0000c0 a5 bf d8 a7 e4 67 ca bf 0a 37 25 44 c4 75 a1 bf
       -0.20629556842459099 -0.034101613348509544
0000d0 47 f0 40 f3 a6 e2 bd bf c0 17 5f 54 3a a6 b7 3f
       -0.11673968733606542 0.09238018569803241
0000e0 76 74 19 55 78 b6 ea 3f df ab b1 21 a2 84 c8 bf
       0.834774175844031 -0.19154764790741205
0000f0 1d a9 05 c9 37 d1 c0 bf 18 30 5b 7e 90 9d 9b bf
       -0.1313848239472656 -0.026968248092814034
000100 5c b8 54 a9 e8 53 d4 bf 54 7a 70 3d 07 ce 85 3f
       -0.3176213887808268 0.010646874010544462
000110 32 3a 61 59 d4 6f d3 3f 63 7f 39 d6 a6 bc 83 3f
       0.3037005303239396 0.009637168324104278
000120 94 c7 a5 ee 76 af e9 3f 9c 77 a4 52 b3 23 a9 3f
       0.8026690159879188 0.04910049804514857
000130 76 b9 7e c3 7e 9f e6 3f c1 c4 f7 16 71 73 8d bf
       0.7069696253072795 -0.014380343926833185
000140 18 58 f7 e6 70 b7 97 3f 1d 64 39 34 50 24 c1 3f
       0.023160709473664637 0.13392069387444475
000150 f9 f1 91 cc cf 1f b5 bf 77 c0 cb 7a f6 e0 99 bf
       -0.0825166582525937 -0.025272227520816117
000160 48 94 35 75 a7 c8 9c bf 3c 7e 16 fe 31 c2 a4 bf
       -0.028109184769523204 -0.04054409243257992
000170 9b 44 87 7e 39 1d d2 bf 03 08 21 62 ce ba c2 bf
       -0.28303372722900527 -0.1463258723397872
000180 06 a9 d4 d7 13 27 8d bf d4 d1 4c 8d db 36 b6 bf
       -0.014234690689211248 -0.08677456092556862
000190 8f 37 21 4a 0b 4b 9a bf c3 46 7b 6e 60 77 c9 bf
       -0.025676895522614592 -0.19895558733565197
0001a0 48 95 92 8b 6f 2a 98 bf f5 1f c5 90 54 46 92 3f
       -0.02359937943824278 0.017846413932858202
0001b0 18 19 38 26 58 ea c1 3f 3e 08 fc 2d 1c b7 a5 bf
       0.1399641214959011 -0.04241264401754606
0001c0 d2 d5 3a 82 15 a2 c8 bf a5 37 8c 4b 19 58 e1 3f
       -0.1924464116943186 0.5420042491475568
0001d0 d6 9e d0 e0 6b eb c0 3f 80 32 2e 9f 15 c1 8d 3f
       0.13218449094096368 0.014528435631086412
0001e0 f2 8a c3 42 55 9c d1 3f b1 a3 86 cf 7e 6c a2 bf
       0.27516681213289396 -0.03598400386119439
0001f0 08 57 44 23 a3 8a d0 bf 35 83 29 fa 88 92 e3 3f
       -0.258461746635803 0.6116375814418463
000200 d5 d8 da 04 70 08 b8 3f f7 1c 09 cb c4 76 c3 bf
       0.0938787471630776 -0.15206203378532
000210 6e 66 9b 78 6c 46 d8 3f e4 fc ae 29 63 51 c9 3f
       0.37929832246809425 0.19779624495820436
000220 fd 14 50 e5 39 47 a3 bf 5d 5b 22 83 b3 bf c0 bf
       -0.03765278743962062 -0.13085025694882804
000230 10 46 c1 d0 3f 58 a7 bf 71 21 ca a8 b2 2b af bf
       -0.04559516356733806 -0.060880263427921195
000240 48 58 bb 1a e4 f6 d4 3f 7a a1 47 b1 38 6e b1 3f
       0.3275690327694787 0.06808809593315415
000250 89 60 a8 22 ff 4a a0 3f 17 e8 5e e0 bc fb b5 3f
       0.03182217882221134 0.0858724639682865
000260 e9 e8 1d 88 a6 61 b4 bf 07 c3 4a 69 ce e5 c4 3f
       -0.07961502860226556 0.1632631315346986
000270 70 e7 a7 f7 e1 51 c9 3f e5 d8 0e d5 15 8a d0 bf
       0.19781136124202758 -0.2584280567783835
000280 b4 a2 14 a4 f5 d4 b0 3f 3c e3 04 50 a5 38 c4 3f
       0.06574950462221346 0.15797869116956942
000290 49 d6 4b 3d d2 98 bf 3f 7e 20 e1 9c 70 b7 d3 3f
       0.12342561718454549 0.308071282579938
0002a0 fb d9 fd 0c 4f e9 ce 3f 6a 97 3a 97 9f 44 b7 bf
       0.24149501928668812 -0.0908908600054851
0002b0 7f 46 f5 65 8b 79 a7 3f a2 71 6f 64 67 b2 d1 3f
       0.04584918613057897 0.2765139084638354
0002c0 b7 ec 8c dd 94 75 a3 3f ac b9 ac 58 b9 11 bf bf
       0.03800645069574087 -0.12136419691953532
0002d0 9e 00 09 1f 8b 2c c2 bf 06 8c 37 9a 09 48 b2 3f
       -0.14198435798062276 0.07141170516074177
0002e0 f7 f6 89 58 1d 7d c9 bf 77 cb 7d f8 35 1b c3 3f
       -0.1991306955641716 0.14926790841453982
0002f0 62 72 9c d2 29 00 a1 3f 26 4b 35 28 91 a7 b2 3f
       0.03320437141357925 0.07286936980862588
000300 78 2c 0c d2 eb e0 81 bf 27 3c 28 7d 76 23 cb 3f
       -0.008729784343378663 0.2120197402113899
000310 0b ef 99 db d2 cf df bf 85 ae 9b e3 b9 3a 9d 3f
       -0.49705954976501293 0.028544334904764063
000320 ae 61 0e a0 81 c6 b1 bf 1d f7 a6 c4 9e da bf 3f
       -0.06943521649953396 0.12442962933615971
000330 49 74 ae 77 b6 31 98 bf 3c 3e f1 00 34 d5 d4 3f
       -0.023627139143730855 0.3255128869250006
000340 d0 ff 87 c9 5d e3 46 3f c4 17 cf 63 6b 8d c3 bf
       0.00069849090056095 -0.15275328038677405
000350 1f 9a 4e 99 1a fa a5 3f 7d 12 16 25 91 f2 9f 3f
       0.04292376634048289 0.031198757065356453
000360 d3 3e 88 27 b5 3b d0 bf c9 b3 ef e9 83 6a d0 bf
       -0.2536442647988057 -0.256501177266554
000370 53 06 53 88 6e 4b bc 3f b5 46 d4 b8 c2 1d b8 3f
       0.11052599743109086 0.09420411121780144
000380 bb 34 fb a3 e2 22 ac bf 8b e9 68 f0 78 2b a4 bf
       -0.05495365382885483 -0.03939416823091609
000390 8e 35 06 a8 c0 29 c4 3f 13 44 0c 5c 76 11 ba 3f
       0.15752418712910948 0.101828954193721
0003a0 3c 4b 92 7c ca cf c2 3f ca a1 af ab 6d a6 d2 3f
       0.1469662769564709 0.2914079834577278
0003b0 a9 eb 53 34 8f 79 d3 bf 76 28 6f e8 69 44 be 3f
       -0.3042943964971366 0.1182314102617584
0003c0 6b 20 2d 4f dc 5c ab 3f 71 26 07 12 aa 14 98 bf
       0.053442845025131934 -0.02351632819207911
0003d0 5d 82 a7 d5 94 c9 8a bf 71 03 1a c8 e7 18 b3 bf
       -0.01307979847928314 -0.07459877620023093
0003e0 c0 85 53 2b 64 47 c1 3f 32 31 0a f1 8d 9e 95 bf
       0.1349911891511919 -0.021112649762060794
0003f0 28 83 e7 e4 77 74 c0 bf 30 5f 54 69 8e 87 a9 3f
       -0.12855433155984852 0.04986233745347446
000400 16 31 2a 10 8d c8 c3 3f c6 b3 a3 8d 49 56 bc 3f
       0.1545578316621536 0.11069163997645068
000410 aa 55 86 b7 a2 af c4 3f d1 96 34 ee 33 7e 86 3f
       0.16160997353715106 0.010982900340035158
000420 63 ea 38 3d 5d 75 97 bf 64 8d 44 a6 15 4a d3 3f
       -0.02290864645167757 0.30139676320160036
000430 f6 a1 73 ae 1d af b2 3f da 37 2d 3d 43 9e c4 3f
       0.07298455723833527 0.1610797928537398
000440 b1 af 50 78 d4 94 bd 3f d2 53 95 22 38 86 c5 bf
       0.11555221497900338 -0.1681585472930736
000450 9c 20 31 70 7d 23 c9 bf 85 cf 94 f0 bd 98 99 3f
       -0.1963955686389952 0.024996726807514875
000460 a0 a0 20 4c 51 d3 b2 3f 9a 0a 85 e4 58 04 b3 bf
       0.07353695019321771 -0.07428508357137745
000470 2a 9e 36 a4 e0 80 b3 3f c5 e4 d2 eb 55 1d a7 bf
       0.07618526467432987 -0.04514568809231315
000480 4c 62 1c b6 78 bb 91 bf 61 c2 a2 81 2c b7 b4 3f
       -0.01731670962826319 0.08092001118598936
000490 80 cb c3 25 93 92 b0 bf 3f 01 b0 23 f5 15 77 3f
       -0.06473655387871524 0.005636174751089406
0004a0 9c 0a 9c 5b c7 89 a3 bf 4d 87 69 17 5a c4 c8 bf
       -0.03816054337769012 -0.19349218505072444
0004b0 f2 8e b8 d8 41 bf ba 3f 53 86 e4 41 85 88 bb bf
       0.1044808534721218 -0.10755188807208897
0004c0 01 bf 40 84 df 45 a3 3f 47 db 66 8f 91 a3 b2 3f
       0.03764246453681431 0.07280835867900946
0004d0 03 ae 79 3c 96 7b 9a 3f 64 1a 23 bb 65 56 e2 bf
       0.025862071457977375 -0.57304655599803
0004e0 e7 69 d5 d3 e5 be c1 3f ea b8 2b 0b af 80 b2 3f
       0.13863823741378598 0.07227605841373799
0004f0 fb ad 8f 02 da 1c d0 3f f6 7b da 13 41 30 ab bf
       0.25176096201059267 -0.053102525399701436
000500 f9 6d 73 ed c3 b3 e0 bf 07 f7 7e 79 f6 52 d7 3f
       -0.5219440114701107 0.3644386469348863
000510 e4 14 50 53 48 a7 cf 3f b6 6f a5 40 2b fa da 3f
       0.2472925574112771 0.42151910126790015
000520 c4 9a fb b6 11 2a d9 3f 84 68 51 dd 3f 56 ac 3f
       0.39319270009438534 0.05534553124080424
000530 63 0c a8 31 fe 99 a1 3f 6e e5 ee d1 12 a4 90 bf
       0.03437799793393805 -0.01625089079218383
000540 2c 55 88 9f 47 d8 99 3f 74 aa 0d cc c4 05 ae bf
       0.025239104377836316 -0.05863776198278439
000550 cf d6 f4 8a 5f 44 db bf 33 d3 ed ac 36 24 8d 3f
       -0.4260481698032494 0.014229228165029894
000560 b2 91 22 16 d7 43 79 bf ad 72 96 aa 65 a4 bd bf
       -0.00616821306372055 -0.11578975119341335
000570 40 bd 82 c6 cc 4c db be 8d ee 33 ba d6 64 bb 3f
       -6.508827120096331e-06 0.10700742765396339
000580 6b e2 ce 5d 3d 8f b1 3f a1 10 1a 0a 4f e1 c3 bf
       0.06859191456067897 -0.15531337731602426
000590 0f 2e 1f b5 80 be 94 3f 2f 4a 52 8a 88 56 cf 3f
       0.02025796037177768 0.2448282885930708
0005a0 5a 11 e5 e6 d0 bd b5 3f 83 b9 b4 5b be 0e c0 3f
       0.08492761265830975 0.12544993856267803
0005b0 1d d4 8b 87 ff 06 a4 3f f1 ea a5 89 d1 75 c7 3f
       0.03911589173905148 0.18328303547954009
0005c0 9f 6e 2f 50 f0 1f 84 3f 99 5e ec 2f 50 12 a2 3f
       0.009826543280659293 0.035295968866362055
0005d0 d3 d3 ca 47 9b 8f da 3f 6b 20 ef ac 47 21 a1 bf
       0.41501504908529546 -0.03345703111659833
0005e0 4d 17 29 5a a7 01 cb bf e3 ea e4 05 5e b8 c1 3f
       -0.21098796751373997 0.13843894279292276
0005f0 6f 1f b8 25 26 e7 c2 3f 35 8a 96 9b dd 22 75 bf
       0.14767910806426296 -0.005160203605017834

conv1.lin_src.weight f8 [192, 9]
000000 26 2e 96 07 f3 d4 d4 3f 6e 40 2f 7e 93 96 d2 3f
       0.32549739590533233 0.29044043848717294
000010 b3 fa 39 88 d9 21 d3 3f 69 7c 24 15 32 c0 43 3f
       0.29894102385871263 0.0006027454894911413
000020 4d 35 25 c1 bb 46 b6 bf c4 3a 14 ff 57 8a 95 bf
       -0.08701680627310289 -0.021035551971233316
000030 1f 47 a6 1d ca 77 90 3f fd ca be 95 13 45 d5 bf
       0.016081960734999897 -0.33234109519541716
000040 b8 f2 ae 1b a6 a7 e8 bf dd 8d 50 2d 6e a2 e3 bf
       -0.7704649487200959 -0.6135779271175427
000050 64 ed d9 a6 e1 1a e2 bf 73 51 c5 23 85 9a e1 bf
       -0.5657814272703203 -0.5501123140952998
000060 2b 4c 4a 81 e1 87 cf bf a8 28 54 9a ce dd 50 bf
       -0.2463342553424764 -0.001029445419876521
000070 42 7b ef 82 cc ce a8 3f 1d 48 51 26 18 af d6 3f
       0.048452750190099994 0.35443691007560735
000080 79 f7 e7 b9 07 9b e9 3f d4 44 ab 55 63 c0 e9 3f
       0.8001745825747398 0.8047348664496448
000090 f1 89 65 5f 92 58 e1 bf 4f 95 37 88 0b e4 d6 bf
       -0.5420619834151791 -0.3576687650914509
0000a0 91 70 8d cb 98 cc dc bf 01 45 1b 57 94 e8 95 bf
       -0.44998760107206076 -0.021395032707748566
0000b0 93 17 03 2f 80 f9 c9 bf 9d 6c 3e ee ba cc a8 3f
       -0.20292665763389248 0.04843696745157298
0000c0 81 6b 7f a1 c3 0a d7 3f 94 55 6b 29 38 ad db 3f
       0.36003199359191035 0.4324474720463851
0000d0 26 8f 64 b0 5f a3 e3 3f b9 fe 8b 2e 56 c7 ea bf
       0.6136930890247398 -0.8368330868833801
0000e0 b4 1f 00 93 46 36 e6 bf f6 4b c4 8b 3d e2 e6 bf
       -0.6941254492858122 -0.7151172380275728
0000f0 15 37 f3 16 2d a3 8d 3f b2 cb 52 de be 7e c0 3f
       0.014471390021209932 0.1288679681361749
000100 41 ee a0 0b bb 17 d5 3f 84 fc ef 28 98 be e4 3f
       0.3295734036980527 0.6482659148749836
000110 7f 34 9c 87 83 fc e9 3f d9 7d 24 95 20 d8 e5 3f
       0.8120744370113612 0.682632724088701
000120 07 3b 15 01 df 9d a2 3f 60 10 bc 2f 1b 87 c1 bf
       0.036360710985368576 -0.13693561392585973
000130 99 95 7e 11 0f ee d2 3f 3d cc b9 25 6b 59 a3 3f
       0.29577995975918153 0.0377915843536347
000140 de 76 3d 1d e0 da d0 bf a5 d8 b4 72 25 89 b0 bf
       -0.2633590970561793 -0.06459268618059129
000150 21 2e 8a 07 fa 7f c8 bf 09 c3 ad b1 18 51 e0 bf
       -0.19140553825524 -0.5098994703567722
000160 0b fc d5 7e a8 fd d8 bf f6 5d 9e 51 a1 a3 de bf
       -0.3904820669776547 -0.4787371918732498
000170 84 cc c8 98 19 1f da bf 42 ca bc 9d 05 df d8 bf
       -0.408148192599761 -0.388612178841104
000180 29 a3 fe e7 61 6c af bf 93 97 90 71 a1 54 b4 3f
       -0.061373767442381606 0.07941636107042731
000190 ec 6c 71 37 1a 19 d4 3f 92 76 8f 52 39 46 d4 3f
       0.3140321294246877 0.31678612768687586
0001a0 dc 6d ce 7d b0 e9 e1 3f b5 b6 51 68 76 b8 e9 3f
       0.5597765404849571 0.8037673985943089
0001b0 3a 9d e6 52 b3 b4 e4 bf 4c c9 07 7c 3b 68 ea bf
       -0.6470581645161595 -0.8252236769169854
0001c0 79 1c 66 52 bd 01 e5 bf c5 9b 28 01 38 68 c7 bf
       -0.6564623460152595 -0.18286800438474252
0001d0 6d 19 e5 9f 41 2e c2 3f 3e 1c d2 24 79 1d a1 3f
       0.14203663165444472 0.03342798780891386
0001e0 0e ea a8 8c 85 b0 e5 3f aa 7d 8d c1 db 62 e9 3f
       0.677798056341375 0.7933176784826419
0001f0 e4 52 77 e1 74 ec e1 3f 8a 27 22 f6 46 b7 e0 bf
       0.560114326823705 -0.5223727042477873
000200 81 af f5 df 30 9b e3 bf 7f a8 47 72 2a f1 e0 bf
       -0.6126942037785598 -0.5294391853360735
000210 82 5f 8e ca 3c 51 9a 3f a5 00 74 c8 44 fa a7 bf
       0.02570052133850665 -0.046831273526551066
000220 05 89 b4 04 58 b1 d1 3f 00 9e 16 c7 de 6f db 3f
       0.2764492078732846 0.42870301668378374
000230 18 1c 63 87 bf 41 e1 3f 6c e6 6b 57 f5 ae e4 3f
       0.5392758983879302 0.6463572223139642
000240 5f ca 7e ce e4 c2 ee bf 22 60 e4 7d 98 be e6 bf
       -0.9612907441244934 -0.7107660731153411
000250 62 a1 8d 3c 40 f4 e5 bf 94 8a 5c c3 33 cd de bf
       -0.6860657866173308 -0.4812745483233496
000260 be 2d 22 b6 9b 2d c6 bf 5c 44 b9 3f dd 32 cd bf
       -0.17326685326803032 -0.22811475383290059
000270 3b 9f e2 ae 34 2c d5 3f 87 ef e2 9b c9 b5 e9 3f
       0.3308231075156873 0.8034408611924712
000280 2c c4 64 c8 11 af e9 3f 30 57 0d d6 4a 5c d7 bf
       0.8026207841813906 -0.3650080767014172
000290 97 da 8d 14 07 50 d9 bf 1e 30 96 56 3a 8d b4 3f
       -0.39550950057256656 0.08027996648723998
0002a0 69 95 61 f5 91 17 d9 bf fd cc 8c c4 19 da d6 bf
       -0.3920636078167577 -0.35706180757843226
0002b0 21 61 26 df ed 14 db bf 4c 8e 08 77 21 8e e6 bf
       -0.4231524161528047 -0.7048499417182454
0002c0 ed 5b 9b df 3e 61 e7 bf b3 a2 6f e3 d6 78 e9 bf
       -0.730620800716563 -0.7960009042845598
0002d0 d1 c4 a0 af 2f 95 c4 3f 43 64 64 82 ab 7c b2 3f
       0.16080280376039593 0.07221481259729594
0002e0 bb f6 f4 ac dd ef b1 3f e9 92 ee 0b e4 c1 b0 3f
       0.07006631348209684 0.06545853892619004
0002f0 61 ee 9b 01 cf 95 9d 3f 77 96 76 cb 74 72 a4 bf
       0.028891787026607555 -0.03993573173219727
000300 89 f7 58 b1 e7 11 d4 3f 5b 5e 2a 62 06 a8 d1 3f
       0.313592837515778 0.2758804281852229
000310 f6 95 28 5b a4 43 b3 3f 38 ad 03 f5 e0 71 ee 3f
       0.07525088525343179 0.9514012132107501
000320 b1 f0 63 d2 2c 3c e9 3f 1d 94 b1 bf 7e b1 e2 3f
       0.7885955914676029 0.5841668838517112
000330 4d 0f c3 a2 55 d2 cf 3f 40 86 9f 45 80 f3 ab 3f
       0.248606399987802 0.054592140673559886
000340 3d d3 4d 6c 36 70 c1 bf 5b 2a d1 72 81 ef db bf
       -0.1362369564846179 -0.4364932652721671
000350 21 90 78 28 f0 3d e9 bf 92 60 a0 5f bd c0 ed bf
       -0.788810805363486 -0.9297778003410875
000360 a1 f8 a0 0e 17 c3 e3 3f f7 3c e6 11 20 91 e0 3f
       0.6175647054403904 0.517715487441733
000370 8c 4a 32 ec 70 2c d6 3f 6a 80 e4 e6 57 e2 cf 3f
       0.3464624697309453 0.24909495138217902
000380 31 06 7e 85 92 5b c1 bf b7 7f 02 07 c5 95 ba bf
       -0.13560706632783728 -0.10384780331742048
000390 7c 2b 93 50 d4 28 6c bf ab 12 95 69 5a d7 d3 bf
       -0.00343743770335919 -0.3100191145970636
0003a0 16 fd fe c6 ec 0b e9 bf 58 93 59 3c b4 48 f5 bf
       -0.7827056776658619 -1.330250011197867
0003b0 cc 0e a8 19 30 84 f0 bf 8a 0e e8 d8 8c f1 ec bf
       -1.0322724344450078 -0.9044861065344361
0003c0 15 4c 82 f7 8c bb f4 bf dc 1e d3 a2 b4 7f f1 bf
       -1.2957887333220743 -1.0936781273211897
0003d0 dd 37 15 f7 85 01 f4 bf 26 e3 0c 05 f0 42 f5 bf
       -1.2503718997645514 -1.3288421818999239
0003e0 4c 13 a7 09 be 8a f7 bf 64 f5 fa 15 6e d3 f2 bf
       -1.4713726403289966 -1.1766186579328286
0003f0 39 1b 44 5d 00 c7 d2 bf b2 d3 90 1b 31 0e d3 bf
       -0.29339608295451886 -0.2977412003704628
000400 e5 ce 1d 08 2f 49 c8 bf 78 bb a9 57 59 e9 91 3f
       -0.18973338981924495 0.017491718268896034
000410 15 d9 0b 58 fa fc a7 bf 93 b4 b6 c1 a9 8b c0 3f
       -0.04685194325240808 0.12926217993427666
000420 1d 5d a0 1e 77 f3 b0 3f 3c 6e 74 30 a7 d5 d0 3f
       0.06621498582568504 0.2630403493110156
000430 54 a5 ca 53 c2 75 e1 3f ce bd cb 75 4e eb e3 bf
       0.5456248890451811 -0.6224739361477363
000440 d9 df 8d 5b 41 01 e2 bf dd b4 6b 2c dd 25 dc bf
       -0.5626532352607639 -0.4398110326572587
000450 4d 5e c2 18 34 44 c7 bf d0 81 81 8c 61 e0 c9 3f
       -0.18176890572498153 0.20216006622923866
000460 1d 46 a9 ea 13 ed c0 3f a6 07 49 8c 43 b5 d6 3f
       0.1322350402647751 0.3548134679768914
000470 49 12 6d 54 ec e0 e2 3f cd 07 a8 79 b1 f5 e2 3f
       0.5899564408251275 0.5924918533421476
000480 7d 00 d3 da 08 e3 e2 bf 4b 88 93 29 42 68 cb bf
       -0.5902141832266491 -0.214119215298583
000490 c8 e1 4b 8c f9 62 ca bf dc 37 77 40 26 1a ca bf
       -0.20614547109995685 -0.20392301700343196
0004a0 77 d7 0c 49 f0 8d be 3f f7 45 09 20 b3 ba bf bf
       0.119353311380875 -0.12394256145605441
0004b0 fa 16 e0 02 18 3f da 3f b7 99 55 4c 7a 6e e3 3f
       0.41010093956752736 0.6072360506921574
0004c0 1b b0 c4 f1 00 4c ea 3f 03 df c8 24 a7 c4 fe bf
       0.8217777940785739 -1.9230109631443504
0004d0 40 4b e9 63 c1 cc fa bf dd 4d 70 10 f3 f3 fb bf
       -1.6749891188416797 -1.747057975972772
0004e0 97 24 8f aa bb 75 07 c0 97 54 c0 42 5c 63 0a c0
       -2.932486851209045 -3.2985158171600903
0004f0 e6 0a 69 d2 84 e4 0d c0 6f ff df e7 c0 cc 0e c0
       -3.736581462698598 -3.8499773135408115
000500 8e a2 8b d5 a4 62 0e c0 cb 0c f5 16 e6 75 0f c0
       -3.798165958713361 -3.932567767480213
000510 54 45 40 46 a2 31 e7 bf a0 e7 f1 b2 18 c4 e0 bf
       -0.7248088237849211 -0.5239375586527224
000520 5e 77 06 fa e9 9f dc bf fb 03 63 7b 0d aa 5d bf
       -0.4472603742268485 -0.0018105632457692245
000530 e1 21 ac 14 be 63 bd bf 98 ec 4f ed 82 34 b6 3f
       -0.11480319981286115 0.08673876088862398
000540 ef 07 5c 92 57 88 e0 3f 64 7b f3 bf ce 3f e1 3f
       0.516643319948569 0.539039015678878
000550 80 3f ae 70 a3 c7 e7 3f 52 b4 2e a0 15 48 e5 3f
       0.7431199265283652 0.6650493744433652
000560 ae 1c 2a 7f ea 40 de 3f f6 06 55 8d 70 63 df 3f
       0.4727121583786794 0.4904443149754195
000570 7a 54 28 f9 9d 10 ce 3f 91 fa 5f 19 d6 b1 b8 bf
       0.23488211313147983 -0.09646356696610271
000580 5f 67 ac 5c 97 e5 bc bf 26 cb 56 03 64 f0 e0 bf
       -0.11287828457389314 -0.5293445649352619
000590 ff 45 9c 32 46 08 e3 bf 2d ae e6 ac ab f2 ea bf
       -0.5947600353703705 -0.842122876832439
0005a0 88 7d 6b 3d 58 04 ee bf 4c 10 3c db 41 ed e8 bf
       -0.9380303573233713 -0.7789620668340915
0005b0 7c 0c 7e b5 b2 22 e3 bf e8 3b 31 18 a1 c2 d4 bf
       -0.5979856056950577 -0.3243792282345894
0005c0 92 76 ee d5 75 74 a4 3f ac 0c bc 4c 87 88 d4 3f
       0.0399510215422484 0.3208330392228145
0005d0 7b d3 4d 15 0f 46 e7 3f 29 26 a9 7e d5 d6 ee 3f
       0.7273021141141806 0.9637248491137075
0005e0 7d 1d b8 b5 dc 2f ec 3f a5 75 aa c5 99 a8 f3 bf
       0.880842547340691 -1.2286622735331119
0005f0 ad 20 d0 ad 4b c5 ed bf aa c0 7a 82 12 03 f0 bf
       -0.9303339381013039 -1.0007500740867195
000600 6a 3b 72 67 ca fa d3 bf 1d 0c 71 2c c1 46 b1 3f
       -0.3121820459572776 0.06748587927818091
000610 f9 c6 c6 6b c6 36 c5 3f 2b 3f cb c1 6f 9f e7 3f
       0.16573410284541248 0.7382124695813891
000620 4f 5b 09 46 b0 28 ee 3f 0a f5 08 7a e6 fd ed 3f
       0.942466866293083 0.937243688916767
000630 2a ea 1a ec 89 f0 cc bf 05 0f 7f d3 90 de c7 bf
       -0.22609066036768982 -0.1864796669670953
000640 db c0 1f 31 f0 c2 e1 bf 79 66 39 bf 34 b3 a5 bf
       -0.555046173043617 -0.042382858603287006
000650 63 41 1a 39 44 c0 b2 bf 5b fc 73 68 d1 c3 c3 bf
       -0.07324625391107058 -0.15441339111564187
000660 12 a3 74 8b 33 46 db 3f 19 59 ed 8f 1a a3 d8 3f
       0.42615975016319496 0.38495506339440194
000670 e2 b6 b5 84 f1 f2 dd 3f ce b1 f6 79 1e 13 e3 3f
       0.4679530902857164 0.5960838682272482
000680 9e af fc e3 96 9f e3 3f 1a e6 ed 75 97 b1 cd 3f
       0.613231129920212 0.23198216684595324
000690 64 1c 6f b7 c0 76 c4 3f 5f 2a 38 db 4d 9d a1 3f
       0.15987404782046888 0.0344032602407267
0006a0 59 e7 bb 88 fc 1e b0 bf 32 5c 33 71 fa 13 da bf
       -0.06297281587822336 -0.4074693780398234
0006b0 72 66 55 6a d8 00 e4 bf 59 11 be a8 13 be e9 bf
       -0.6251031948879258 -0.8044527335883159
0006c0 88 8a bd b4 80 2f ca bf 13 36 2d f9 3a c8 9e 3f
       -0.20457466912474254 0.030060693224461654
0006d0 3e 47 e9 dc 26 a9 9b 3f e9 51 cc 50 48 f0 d7 3f
       0.027012450440742734 0.37404067888681297
0006e0 3c 71 10 21 cd b9 c4 3f 85 7e c9 a8 95 ba 86 bf
       0.1619202052542138 -0.011098069394562824
0006f0 1f 96 ad 79 73 d9 d3 3f c1 1d e9 8c 2c 4f b3 3f
       0.3101471603643819 0.0754268497486157
000700 bf cb 40 b3 03 1c a7 bf 54 0f fe d6 14 98 c3 3f
       -0.045135608321650526 0.15307865617443872
000710 84 37 18 72 e9 c3 bd 3f 29 8c 5a ca 47 a0 b9 bf
       0.11627062831413865 -0.10010193529392154
000720 d1 19 10 dd 2b d1 b1 bf 61 77 13 72 bf 72 c0 bf
       -0.06959795138400372 -0.12850182600135
000730 9c 13 8e 9b f9 f4 b1 3f f4 5c 87 68 8d bc cf 3f
       0.07014427230576675 0.24794166187232458
000740 5e 97 f2 20 04 2d c1 3f de 52 ad be b8 54 c0 3f
       0.13418628319521536 0.1275854998626959
000750 32 06 8b 65 5b 2e d5 3f 30 75 0e ee c3 de d0 3f
       0.3309544078475454 0.2635965180177946
000760 fb 21 70 fd ac 0a d4 3f 0b 1a a1 8c 00 fd d8 3f
       0.31315159559065336 0.3904420255024951
000770 66 b7 28 96 b9 63 cf 3f 36 51 75 a1 86 e5 c6 3f
       0.2452308638761977 0.17887957462029086
000780 54 ab b9 c1 59 45 b7 3f 5f 27 c8 b3 05 2b c1 3f
       0.09090195636387693 0.1341254356232708
000790 18 b6 3e 99 52 fb c8 3f 01 6c 7d 71 71 32 d5 3f
       0.19516975863136632 0.3312038048076716
0007a0 4b 33 4d d8 4d 18 cd 3f 65 e7 e8 e9 db 92 c9 bf
       0.2273042017135601 -0.19979428216339126
0007b0 62 99 15 15 07 d8 ce bf 49 ad f1 97 d2 28 c5 bf
       -0.24096764115820252 -0.16530830783026776
0007c0 52 22 d0 31 8e 3e a3 bf 55 a4 2a 46 c8 d0 75 bf
       -0.037586635189715736 -0.005326063461930171
0007d0 70 f6 3a 33 0e 93 c8 3f e9 3e b7 f2 5a f3 c6 3f
       0.1919877767704068 0.17930161334378816
0007e0 03 98 96 dd 5c 3a 01 c0 23 53 c0 a8 33 23 03 c0
       -2.153497439535387 -2.3921883758252007
0007f0 b3 b8 42 16 83 e5 03 c0 ba 9e 90 cf b1 42 ff bf
       -2.4870664347755223 -1.953782854843594
